gru_model.pth (torch, 155988 bytes, 9 tensors)

gru.weight_ih_l0 f4 [192, 2]
000000 5b a0 f1 bd 11 e2 9d bd f4 0f d0 3d b6 af aa 3d
       -0.117981635 -0.07709134 0.10159293 0.083342955
000010 11 af a4 3c 9f c0 a2 bb bc 3e af bc 7a de da bd
       0.02010301 -0.00496681 -0.021392219 -0.10686965
000020 3c eb 09 be 4b f8 22 bd 04 31 ad 3c 7d f9 ea 3d
       -0.13468641 -0.039787572 0.021141537 0.11473367
000030 11 99 6f bd 4f 1a 79 bd 51 d8 e8 b9 d8 a5 10 be
       -0.058495585 -0.060816105 -0.00044411657 -0.14125764
000040 63 cf bd bd 70 9e 1f 3e 72 1d 32 bd 7c a4 db 3d
       -0.092680715 0.15587783 -0.043485112 0.10724732
000050 0a 26 a5 3c 05 0d 03 bc 0c d5 25 be 47 cf 22 3d
       0.02015974 -0.00799871 -0.16194552 0.039748456
000060 07 04 0b 3d 78 43 3f 3d 92 04 1f be 71 f0 c8 bd
       0.033939388 0.046695203 -0.15529087 -0.098114856
000070 1a b1 0e be 60 f0 b1 bc d1 00 cb bd 3b 7d f7 bd
       -0.13934746 -0.021721065 -0.09912265 -0.12084433
000080 2b 74 0a 3e 52 cb e4 3d 9a af 9b 3c f8 7f 2c 3d
       0.13520877 0.11171593 0.019004632 0.042114228
000090 f3 08 55 3d f4 eb 1f be 95 89 2e be 5b 32 9b 3d
       0.052010488 -0.15617353 -0.17044671 0.07577964
0000a0 e7 f8 d4 3a 65 9c 1f 3c ef 79 08 39 33 4c 37 bd
       0.0016248495 0.009741877 0.00013015395 -0.044750404
0000b0 de 32 a7 3d 04 8d 9e 3d 71 92 f6 3c d5 5c 0f bc
       0.08163999 0.0774174 0.030099126 -0.00875016
0000c0 02 43 a9 3d a4 00 14 3c 0f ff 84 bc 00 67 b8 bc
       0.08264734 0.009033356 -0.016234903 -0.022510052
0000d0 2a 43 43 3d 6f 17 eb 3b ac a5 1f bd 42 8b e3 3d
       0.047671475 0.0071744244 -0.038976356 0.11110546
0000e0 c6 d2 85 3d 47 29 44 bd aa 37 8a 3d d1 10 75 bc
       0.065343425 -0.047890928 0.06748898 -0.014957623
0000f0 72 ad dd 3c 47 05 90 3c 8d d6 d6 3d 0e 83 80 3b
       0.027060244 0.017580641 0.10490141 0.003921873
000100 4e 74 a3 3d ff 1a 1b be 5a b9 ac 3c 22 bf ab bd
       0.07981168 -0.15147017 0.021084476 -0.08386065
000110 7d cd 1d 3e c0 a2 7f 3d 51 79 87 bd 9f 23 a9 3d
       0.15410419 0.06241107 -0.06614936 0.08258747
000120 69 aa ee 3c 90 71 25 3d 7a d9 b3 3d bf 16 e1 3a
       0.029133992 0.040391505 0.08781715 0.0017172917
000130 70 04 07 3e eb 24 a3 3c 24 2b 8d bd dd 72 89 bd
       0.13185287 0.019915065 -0.06892994 -0.067113616
000140 4d 4c 2e 3e 6f 8c b4 3d 52 01 05 be c1 89 0f be
       0.17021294 0.08815848 -0.12988785 -0.14017393
000150 e2 4a 83 3c 7c d0 96 bc 93 60 79 be f7 5e 25 bd
       0.016026918 -0.01840996 -0.24353246 -0.04037377
000160 56 31 37 3d 56 c0 96 3d cc 5c 07 3c d3 34 ea bb
       0.044724785 0.07360904 0.008261871 -0.0071474104
000170 9c 02 4a 3d d0 51 27 be fe aa 36 bd fe 47 9c bc
       0.049318895 -0.16339803 -0.044596665 -0.019077297
000180 ca c1 56 bd 65 84 61 3d 04 6c 8f bd 96 fe 4c 3e
       -0.052430905 0.055057902 -0.07003024 0.20018992
000190 64 27 2b bd ec 51 a8 bc cb e0 74 3d e4 d6 1c 3c
       -0.041785613 -0.020546876 0.05978469 0.009572718
0001a0 1f 0d 08 3d b0 32 aa bd 4f 31 73 bc 03 57 b0 3d
       0.03321564 -0.08310449 -0.014843299 0.08610346
0001b0 55 6e 03 be 7d 20 db bc a0 92 1e 3e d5 8d 9f 3c
       -0.12835057 -0.02674889 0.1548562 0.01947681
0001c0 a1 c1 ab bd 64 f0 e4 bd 0c a1 a3 3d 4d 34 37 3d
       -0.08386541 -0.111786634 0.07989702 0.044727612
0001d0 48 e1 56 3c 79 46 1c 3e ec f3 3a 3d e5 62 55 3b
       0.013115235 0.15261258 0.04564278 0.0032560166
0001e0 bc 2c b4 bd 9e c0 12 3d 33 9d 4f bd 7a a6 1c 3d
       -0.08797595 0.035828225 -0.050687026 0.038244702
0001f0 0e 47 87 bd fa 16 b6 bc d5 a0 41 be 09 3b 07 3e
       -0.066053495 -0.022227753 -0.18909009 0.13206114
000200 10 ca c3 bd 1e db 82 bd c3 79 91 bc 66 18 ec bd
       -0.09560025 -0.063894495 -0.017758256 -0.11528091
000210 62 af 9f bc a7 16 b4 bd 9f 13 70 bc 90 3d 8f bd
       -0.019492809 -0.08793383 -0.0146531155 -0.06994164
000220 a1 b0 3f bd bf 6b d8 3e 8a af 91 bc ca 24 2c be
       -0.046799306 0.42269704 -0.017783899 -0.16810909
000230 a3 33 98 bc d5 74 1e bd 78 b2 cc bc 97 e5 a3 3d
       -0.01857931 -0.03868564 -0.024987444 0.08002775
000240 61 fe 24 bd 0c e0 f9 3d 24 40 ec 3d b9 db 88 3c
       -0.040281657 0.12200937 0.11535671 0.016706334
000250 4b f0 a6 bd f6 51 0c be d6 a8 e6 3d df a8 e9 bd
       -0.08151301 -0.1370314 0.11262672 -0.11409163
000260 a9 49 94 bc 83 a9 8a bd 8d af 7d bc f4 92 ba bd
       -0.01810153 -0.06770613 -0.015483749 -0.0911006
000270 7b eb 2c bd 4a 80 ad 3e a9 9d 86 bc d1 5a 91 bd
       -0.04221676 0.3388694 -0.0164326 -0.070974
000280 24 b5 13 be 02 6b cc bd 0d 8e 06 be a1 55 b3 bd
       -0.14424568 -0.099813476 -0.13140126 -0.08756567
000290 06 ab b5 3d a1 06 fe bd a5 fd 72 bd 02 18 03 be
       0.08870511 -0.12403608 -0.059323926 -0.12802127
0002a0 06 e1 f8 3d 9d 88 9b bd 5d 33 ef bc d3 67 12 be
       0.12152295 -0.07594416 -0.029199297 -0.14297418
0002b0 b2 48 7d 3d 60 9f da bd 8d 1b c6 3d d0 39 8b bc
       0.061836906 -0.106749296 0.09673224 -0.01699534
0002c0 2d b1 da 3d d1 db 11 be 72 09 0b be 93 7b 12 3d
       0.10678325 -0.1424401 -0.13577822 0.03576238
0002d0 6f b6 11 be 97 23 43 be 7f c3 71 bd 28 60 cd bd
       -0.14229749 -0.19056545 -0.05902433 -0.10028106
0002e0 ad 40 69 bd f4 9c 7b 3b 8d dd 81 bd 16 e2 f7 3c
       -0.056946445 0.0038393112 -0.063410856 0.030259173
0002f0 08 ad fb bd 1b c1 47 3d be 69 38 bd 06 06 f4 bd
       -0.122888625 0.048768144 -0.04502272 -0.119152114
000300 c6 cf 13 3e 17 5b f6 bd bb 15 16 be 4e 60 3e be
       0.14434728 -0.12029093 -0.14656727 -0.18591425
000310 c4 22 ce bd 7c 60 27 be 66 d5 1e be 17 ab 43 be
       -0.10065225 -0.163454 -0.15511093 -0.19108234
000320 bc 5f 87 bc c9 2f 1b be b6 52 71 3d a0 3b 6c ba
       -0.016525142 -0.15154947 0.05891677 -0.00090115704
000330 12 ea 8e bc 88 0a 16 be 90 a4 e6 bd b4 97 5a 3a
       -0.017445598 -0.14652455 -0.112618566 0.00083386456
000340 14 d9 a0 bc ed b2 59 3d e7 79 65 bd 73 d4 2c be
       -0.01963476 0.053149153 -0.05602446 -0.16877918
000350 7a db 89 bd 18 dc ce 3c 98 a5 64 3d 83 d8 1c bf
       -0.06731315 0.025251433 0.055821985 -0.6126787
000360 06 8f 26 be 8b 32 1e be 0a 19 8b bc 26 66 c4 bd
       -0.16265497 -0.15448968 -0.016979713 -0.09589796
000370 cf 2b 92 bc 02 0e 82 bd 01 0c b3 3d 8e 0d f2 bd
       -0.017843155 -0.06350328 0.08742524 -0.118189916
000380 1f 32 8f 3d 34 f1 19 be f5 ab 87 bd 1c 79 9c bd
       0.06991982 -0.15033418 -0.06624595 -0.07640287
000390 b3 e2 b2 bc 9f 54 89 3d 95 de 70 bc fd 54 da bd
       -0.021836614 0.06705593 -0.014701505 -0.106607415
0003a0 de dc 0c bd 54 21 25 3e db 84 6d bd 95 c4 16 bc
       -0.034390323 0.16125995 -0.05798803 -0.009202142
0003b0 6c de 4c bd d6 61 55 3d a5 c5 84 bc 55 79 44 be
       -0.050016806 0.052095257 -0.016207526 -0.1918691
0003c0 83 df 87 bc f3 92 f3 bd b0 68 b8 bc 2f 6c 61 3d
       -0.01658607 -0.11893263 -0.022510856 0.055034813
0003d0 76 53 e3 bd 6a 39 26 be 69 a7 d5 bd db aa 8e 3d
       -0.11099903 -0.16232839 -0.104323216 0.06966182
0003e0 1e 0b a2 bd d1 f9 b9 bc 6c 6b f4 bd 53 1b 63 3d
       -0.07912277 -0.02270213 -0.119345516 0.05544598
0003f0 23 c0 ca bd d2 da da 3c 49 b4 b7 bc 49 59 62 3d
       -0.098999284 0.02671567 -0.022424834 0.05526093

gru.weight_hh_l0 f4 [192, 64]
000000 58 ee fb 3d 28 a7 86 3d 3c 3c ee 3d d8 10 bb bc
       0.1230132 0.06574851 0.116325825 -0.02283518
000010 94 c7 c7 bd 2e fc c8 3d 06 17 81 3d 98 31 51 3d
       -0.097548634 0.098137245 0.063032195 0.051072687
000020 ba 83 b9 3d 0e 10 90 3d 90 ce 1c 3d a8 0e 2d 3d
       0.09058328 0.07034312 0.03828293 0.042250305
000030 c8 ab 0e 3d 1a 31 ca bd 60 af a4 3c 08 ce 41 3d
       0.034831792 -0.09872647 0.020103157 0.047315627
000040 00 3d 93 3b 68 16 e6 bc f0 66 10 3d dc 5b 5f 3d
       0.0044933558 -0.028086856 0.03525442 0.054530963
000050 58 86 8d bc a8 30 36 3d 5c b8 18 bd d8 0d b5 bc
       -0.017275974 0.044479996 -0.037285194 -0.022101328
000060 3e c5 e8 3d 00 e7 22 3c 6a 7a d7 3d a8 fc 42 3d
       0.11365746 0.00994277 0.105213955 0.047604233
000070 ca a3 e1 bd 20 fd c3 3c 66 0c bd bd c2 c8 df 3d
       -0.110175684 0.02392441 -0.092308804 0.109269634
000080 64 bc 39 bd 20 28 0d 3d 50 2b f6 bd 00 f2 28 bc
       -0.04534568 0.034462094 -0.1201998 -0.010311604
000090 00 a7 32 bb 8c e0 66 3d ec 3f 31 3d 72 c6 f7 3d
       -0.0027260184 0.05636649 0.04327385 0.12098397
0000a0 bc ce 47 bd 08 54 a9 3c d0 90 7d 3c 40 a4 c8 bb
       -0.04878114 0.020669952 0.0154764205 -0.0061230958
0000b0 e0 94 a4 3c 80 d7 a3 3a d8 e4 ae bd 66 ee 9f 3d
       0.02009052 0.0012500137 -0.08539742 0.07809143
0000c0 94 99 b1 3d 40 4b 4f bc 00 ff 6b 3b fa bd d7 3d
       0.08671871 -0.012652218 0.0036010146 0.10534282
0000d0 9c fc fb 3d 30 eb 82 bd 78 65 be 3c 1c 31 69 bd
       0.12304041 -0.06392515 0.023241743 -0.0569316
0000e0 ca 63 98 3d 1c 8e 0f 3d 8c b2 5c 3d 30 d6 f4 3d
       0.07440908 0.035047635 0.053881213 0.119549155
0000f0 2c 6a a8 bd b4 fc 54 bd 78 74 66 bd 48 94 e7 bc
       -0.08223376 -0.05199881 -0.056263417 -0.028268948
000100 2c ee 45 bd 52 20 81 3d c0 52 75 3c da 62 f8 bd
       -0.04832284 0.06304993 0.014973342 -0.121282294
000110 b4 e9 70 3d 54 c7 4e bd d6 f5 9c bd a2 c4 84 3d
       0.058816627 -0.050483063 -0.07664077 0.06482817
000120 1a e3 a2 bd a8 52 e6 3d 30 7a 75 bd 48 6c d0 bc
       -0.079534724 0.11246234 -0.05993098 -0.025442258
000130 72 3e b9 bd 50 4b a1 3c 5c ce 98 3d 68 c0 a1 3c
       -0.090451136 0.019689232 0.07461235 0.019745067
000140 10 c2 ef bc f0 c2 0a 3d 8e 7d 90 bd 98 cd e3 bd
       -0.02926734 0.033877313 -0.07055198 -0.11123198
000150 18 b7 3d bd 80 4c 67 bc 56 be 88 3d f0 d3 d3 3d
       -0.04631719 -0.01411736 0.06676929 0.10343158
000160 ec 1d 63 3d f0 59 ba 3d a8 0f 65 bd 92 f8 a2 3d
       0.055448458 0.090991855 -0.055923134 0.07957567
000170 72 7c bf bd 60 1e 66 3d 86 a1 c3 bd ca 7f c1 3d
       -0.09349908 0.05618131 -0.095522925 0.09448202
000180 1a 8d d6 3d 42 c0 86 3d 88 49 9a 3c e4 9c de bd
       0.10476132 0.06579639 0.01883389 -0.10869768
000190 3a ac cf bd 04 49 92 3d 10 d7 5d bc e8 2b 0b bd
       -0.101402715 0.07142833 -0.013540044 -0.03397742
0001a0 f0 ae e7 3c 48 d0 a2 bc 74 0d e9 3d d4 7b 38 3d
       0.028281659 -0.019874707 0.11379519 0.045039967
0001b0 d0 48 a9 3d e8 25 8f 3d ba 93 82 bd 88 f5 9d 3c
       0.08265841 0.06989652 -0.06375833 0.019282117
0001c0 50 f9 9e 3d 4c a2 07 3d 56 ff d6 3d 20 09 cd bd
       0.07762396 0.033113763 0.1049792 -0.10011506
0001d0 98 eb d1 bc c8 49 93 3c c0 f5 3d bd 8e a9 fe bd
       -0.025625035 0.017979518 -0.046376944 -0.12434684
0001e0 74 b4 3e bd 5e 8f c0 3d ea ab a5 3d ce 64 95 3d
       -0.046558812 0.09402345 0.08089431 0.072946176
0001f0 20 0f 89 bc ca 67 ca bd 20 64 8f 3c 26 b9 82 3d
       -0.016730845 -0.098830774 0.017503798 0.063829705
000200 aa d0 bb bd d8 1a 33 bd a0 55 95 bc 50 15 7e 3d
       -0.09170659 -0.043726772 -0.018229306 0.062032044
000210 f0 43 ca bd 00 b9 95 3a 58 dc 97 3d 8e 04 b0 3d
       -0.09876239 0.0011422932 0.07415074 0.08594619
000220 38 36 7b 3d e0 ad c3 bc 44 79 60 bd 4c 84 ab bd
       0.061331004 -0.023886621 -0.054803148 -0.08374843
000230 e0 4e de 3c 40 0c eb bd 50 b0 28 3c 34 51 ef bd
       0.02713722 -0.11476946 0.010295942 -0.1168541
000240 50 ba a1 bd cc ef a3 3d 88 8c 26 3d fe 08 e3 3d
       -0.078968644 0.08004722 0.040661365 0.110856995
000250 5a 8d 8d 3d c8 14 bc bd 18 8b 0e 3d a8 88 2d 3d
       0.06911726 -0.09183651 0.03480062 0.042366654
000260 14 e6 e9 3d 00 38 8e 38 de 44 ae bd ba bd b9 bd
       0.11420837 6.7815185e-05 -0.08509229 -0.090693906
000270 76 50 a3 3d b0 ed 91 bd 06 5e e4 3d 6c 01 a9 3d
       0.07974331 -0.071254134 0.11150746 0.08252224
000280 00 06 95 3d 80 53 1d 3b 3c dc c1 3d f2 bf ac 3d
       0.07276535 0.0024006069 0.094658345 0.08435048
000290 50 99 de bc 00 38 cc 3d f6 1e ee bd 68 de 9a bc
       -0.027172714 0.09971619 -0.11626999 -0.01890488
0002a0 20 c6 c5 bb c4 01 63 3d e0 80 41 3c 8c 7b 0a 3d
       -0.006035581 0.055421606 0.011810511 0.03380923
0002b0 30 60 22 3d 50 7b 84 3d 20 56 47 bd 80 da ac bc
       0.039642513 0.064688325 -0.04866612 -0.021100283
0002c0 fe a5 ab 3d 24 9a 2c 3d 4a 9b 85 3d 80 ad a6 bb
       0.0838127 0.042139187 0.0652376 -0.005086601
0002d0 e0 dc d7 bd d8 4a 4a 3d 92 b5 f1 3d 90 a5 d6 bd
       -0.105401754 0.049387783 0.1180221 -0.10480797
0002e0 6c 74 09 3d 00 e7 41 ba 34 17 0d bd 90 83 01 bc
       0.033558294 -0.00073967874 -0.034445956 -0.007904902
0002f0 48 8c 99 bc 20 76 34 3c 84 f3 15 3d 20 2a e8 3b
       -0.01874365 0.011014491 0.036609188 0.0070851
000300 40 4a b9 bd 9a 98 d7 bd 70 cd 1b 3c b0 41 74 3c
       -0.09047365 -0.10527153 0.009509429 0.014908239
000310 c0 c9 c6 3c 2c 6a 83 3d 60 79 fb bc a0 38 f8 3b
       0.024266124 0.06416735 -0.030697525 0.0075751096
000320 f8 d2 13 bd 74 f3 d2 3d d2 9d d8 3d 54 fb 8c 3d
       -0.036089867 0.10300341 0.10576977 0.068838745
000330 f6 e8 ec 3d e0 6d 5a bc 1a 6a 95 bd 00 47 9a bb
       0.11567871 -0.01333186 -0.07295628 -0.004708171
000340 18 df 3f bd a0 b4 f8 bb 3c 3e 9c 3d 60 06 81 bd
       -0.04684362 -0.0075898916 0.07629058 -0.06300044
000350 40 93 d0 3c 0c ba 6b bd b8 4c 81 3c ec d8 aa 3d
       0.02546084 -0.057550475 0.015783653 0.08342156
000360 02 24 89 bd 0e d2 8a 3d e4 7d 01 bd 20 3e 26 3c
       -0.06696321 0.06778346 -0.0316142 0.010146648
000370 0a a3 c9 bd 38 ce cd 3d b6 8b e1 bd 34 ea 5f 3d
       -0.0984555 0.10049099 -0.11012976 0.054666713
000380 c8 68 a9 3c 58 f6 68 3d 9a 51 82 bd 30 80 b9 3d
       0.020679846 0.056875557 -0.063632205 0.09057653
000390 f2 de da 3d 80 46 3c bc f6 10 ab 3d 00 ff 71 3a
       0.10687055 -0.011491418 0.083528444 0.00092314184
0003a0 f4 05 d7 3d 40 3a ad bb b2 5d ea 3d 54 51 29 bd
       0.10499182 -0.005286485 0.11443652 -0.041337326
0003b0 82 05 97 3d 8a 6e bb 3d 00 88 69 3a 72 6b d6 3d
       0.073740974 0.09151943 0.000890851 0.10469712
0003c0 68 a8 42 3d 48 1a b0 3d 78 3a bf bd ee a8 ae 3d
       0.047523886 0.08598763 -0.09337324 0.085283145
0003d0 66 df bd bd d4 f7 f5 3d a4 d7 41 bd a8 25 68 bd
       -0.092711255 0.1201016 -0.04732479 -0.056676537
0003e0 e6 60 c9 bd ac dc 98 bd 50 33 1d 3c d0 01 f2 bc
       -0.09832935 -0.07463965 0.009594753 -0.02954188
0003f0 c8 82 b6 bd 50 f9 c6 3c 10 5c b9 3d 7c 5a b2 3d
       -0.08911663 0.024288803 0.09050763 0.08708665

gru.bias_ih_l0 f4 [192]
000000 6f 65 1f be 3d 26 c1 3c 70 66 a4 bd 6e f3 01 be
       -0.15566038 0.023577804 -0.08027351 -0.12690517
000010 fc 9d a3 3a 01 19 87 3d 69 18 e3 3c 7e d1 a3 3c
       0.0012482996 0.06596566 0.0277216 0.019997355
000020 fd e5 03 3d c6 74 08 bd 7b cd 3f 3e 10 6a 01 be
       0.032201756 -0.03331449 0.18730728 -0.12638116
000030 03 ae a4 bd 8b bd 3e be e8 c9 9d bc 52 b9 1a bd
       -0.080410026 -0.18626992 -0.019261315 -0.03777439
000040 ec d7 50 bb 61 05 36 3d 65 ba dc bc 45 dc 41 3e
       -0.003186698 0.044438723 -0.026944349 0.18931682
000050 23 63 61 3e 6c 02 af bd 88 96 95 bd 6c ae 7e bc
       0.22010474 -0.08545384 -0.07304102 -0.015544515
000060 1d a3 2b 3e 44 37 9e b9 60 0c 90 bb 1b 1b 11 3e
       0.16761442 -0.00030177284 -0.0043960065 0.14170496
000070 3a 43 34 bd ab 71 30 3d 60 32 19 bd 54 3f 49 3d
       -0.044009425 0.043077152 -0.037401557 0.04913266
000080 3a b5 a4 bd da f1 14 be 40 b3 36 3e 9c 5e 48 3e
       -0.08042379 -0.14545384 0.17841816 0.1956734
000090 e0 0e b8 bd 70 78 28 bd 5a 7c 97 3c 99 35 69 bd
       -0.08987212 -0.041130483 0.018491913 -0.05693588
0000a0 36 87 35 3e cc ec 04 be 5e 1e a0 bd bf 71 27 3d
       0.1772736 -0.12980956 -0.07818292 0.04087996
0000b0 16 9d 59 bd b2 e0 cf bd 81 27 cc bd 08 06 c1 38
       -0.053128324 -0.10150279 -0.09968472 9.2040806e-05
0000c0 70 63 18 be cb 4f 05 3e c7 48 10 be 2d bf f8 3d
       -0.14881682 0.1301872 -0.14090262 0.12145839
0000d0 68 6b 44 3d bd a0 0c 3e d3 01 4c 3b ce cb d1 3d
       0.047953993 0.13733192 0.0031129017 0.10243951
0000e0 5e 30 07 bd b6 05 0b 3e 90 b5 ce 3d a4 72 46 3d
       -0.03300511 0.13576397 0.10093224 0.048449174
0000f0 fb df 36 bd f9 44 ad 3d f0 0d 1c 3e fb 8e 22 bd
       -0.0446472 0.08460421 0.15239692 -0.039687138
000100 d2 35 a0 bc 6d 46 62 bd b3 93 4c bc 27 ea 09 be
       -0.019556914 -0.055242945 -0.012486386 -0.13468228
000110 83 1f ac 3e 36 ca d0 bd c7 73 61 bc 50 1f a4 3d
       0.33617792 -0.10194819 -0.013760514 0.08013785
000120 cd 67 38 3d 64 91 51 bd 3b 4c bf bc 8d fe 27 bd
       0.045020867 -0.051164046 -0.02335178 -0.041014243
000130 92 ca 58 3d 6a 61 e3 bb 40 83 4b 3e 52 71 c1 bd
       0.05292756 -0.006939103 0.19874287 -0.09445442
000140 8b 0d 09 be 18 9e 4a 3b 46 a8 3a 3d e0 7d dd bb
       -0.13384072 0.0030916985 0.045570634 -0.0067593902
000150 e8 d0 eb bd f4 b3 a6 3c 5a 89 90 3d c8 26 56 bd
       -0.11514455 0.02034948 0.07057448 -0.05228308
000160 2a 28 aa 3d df 6d 3c bb 67 22 80 ba f6 d8 1e be
       0.08308442 -0.0028752012 -0.0009775878 -0.15512452
000170 ed 3e 31 be f0 d7 99 bc a8 d8 05 3c 30 70 c2 bd
       -0.1730916 -0.018779725 0.008169331 -0.09494054
000180 48 78 4a 3c dc f6 46 bd a1 a0 21 be 4f 3c 30 be
       0.012357779 -0.048575267 -0.15783931 -0.17210506
000190 ae 19 11 be 11 c5 ab bc 16 0c 1e be 16 25 1e bd
       -0.14169952 -0.020967992 -0.15434298 -0.038609587
0001a0 b0 97 3b bd 38 0c b5 bd 78 02 05 be 79 9c 1b bf
       -0.045798957 -0.08840221 -0.12989223 -0.60785633
0001b0 57 98 81 bc 5a 52 d8 ba 18 db e7 bd 3f f0 89 bd
       -0.015819712 -0.0016504035 -0.11321086 -0.067352764
0001c0 3f 64 b5 3d 86 06 0a be 0f 43 83 bd 58 ac 87 3d
       0.08857011 -0.13479051 -0.06409275 0.06624669
0001d0 de c8 e3 3d 10 6a d4 3b b5 d9 ec bd 35 d8 4f bd
       0.11122297 0.00648237 -0.11564962 -0.0507433
0001e0 0c cb de bd d9 17 2d 3d 0a 88 26 3d 10 1a 0d bd
       -0.10878572 0.04225907 0.04065708 -0.034448683
0001f0 a0 29 29 bd 82 04 02 be 16 79 b2 bd b4 68 c9 3d
       -0.041299462 -0.12697032 -0.087145016 0.09834424
000200 2f 44 c3 bd ae 0a 54 bc ad 49 52 bd 39 3b 24 bc
       -0.09534489 -0.012941999 -0.051339794 -0.010023885
000210 97 6f 85 bd 99 ef b6 3c c1 ce 14 3e ec 52 2e bd
       -0.06515425 0.022331046 0.14531995 -0.04255955
000220 91 7d c7 3d 18 0d 98 3c d4 d4 f1 3d f3 99 19 3d
       0.09740747 0.018560931 0.11808172 0.037500333
000230 61 eb 87 bd 68 c4 2c be e8 c4 9d bd 64 f9 cd bc
       -0.06636692 -0.16871798 -0.077035725 -0.025143333
000240 1b 53 11 3e 8f 64 e2 3b 37 b1 39 be 35 d2 c2 3c
       0.14191858 0.00690896 -0.18134008 0.023781875
000250 af 80 ed 3c 8b ab 91 bd d3 17 a0 bd f0 f1 f3 3b
       0.028992025 -0.07112797 -0.07817044 0.0074446127
000260 70 1c ca bd d3 7a dc bd db f3 45 3c 40 8a 40 be
       -0.09868705 -0.10765614 0.012082065 -0.18802738
000270 48 3a 67 bd 13 a2 70 3c 1b b9 06 be bb 71 11 be
       -0.056452066 0.014687079 -0.1315655 -0.14203541
000280 f8 97 80 3d e9 d9 0e bd f6 82 1f 3e 83 c3 88 3c
       0.06278986 -0.034875784 0.15577301 0.01669479
000290 78 7c bf 3d 06 8c 04 3e 2d 06 36 3e 8f 7e 12 be
       0.093499124 0.1294404 0.17775793 -0.14306091
0002a0 d8 af f0 bd f9 c2 a2 3d 54 c9 92 3c a4 72 d5 3d
       -0.117522895 0.07947344 0.017918266 0.104222566
0002b0 56 cf c2 bd e0 47 f8 bd 80 11 02 be ad a1 83 3d
       -0.095122024 -0.12123084 -0.12701988 0.064273216
0002c0 c2 67 3d bd 5e df 6d bc 73 ac 25 3e 2b dc 87 bd
       -0.04624153 -0.014518587 0.16179065 -0.066337906
0002d0 fc 21 76 bb e1 b8 b3 3c dc 97 2d bd aa a6 ad bd
       -0.0037556877 0.021938743 -0.042381153 -0.08479054
0002e0 f9 e2 f9 bd a3 d1 4c bd 8d 5b 9c bd 5b 72 90 3c
       -0.12201495 -0.050004613 -0.076346494 0.017632654
0002f0 60 e6 88 bb 5d 9f f4 bd 1b b9 4b 3d c2 fb 08 be
       -0.0041778535 -0.11944459 0.049737077 -0.13377288

gru.bias_hh_l0 f4 [192]
000000 84 33 30 be ab 85 e1 3b 23 39 c4 bd 9b a2 9d bc
       -0.17207152 0.0068823895 -0.095812105 -0.019242575
000010 f8 d5 0e 3e ad 17 a0 bc 32 75 ff bd 9f 92 25 be
       0.1394881 -0.01954254 -0.12473525 -0.16169213
000020 ae 0b 05 3d ab 9a 44 3e b8 dd 7e 3d 45 d3 c5 3c
       0.03248184 0.19199626 0.062223166 0.024148593
000030 43 4a 01 be 95 ba f3 bd 39 13 3e bb bf 0c cd 3c
       -0.12625985 -0.11900822 -0.0029003157 0.025030492
000040 9d b3 cf bb 3d 71 e3 3c 49 11 07 bc 39 0c 66 3e
       -0.0063385502 0.027763957 -0.008243867 0.224656
000050 66 90 2b 3d 69 cf 96 bd be a8 ff 3d a3 f3 57 3e
       0.041885756 -0.07363779 0.12483357 0.21089034
000060 8c f5 40 3e fd d5 df 3d 9b 92 06 be 86 6c 7a bc
       0.18843669 0.10929487 -0.13141863 -0.015284663
000070 dc 7a b7 bd 96 91 06 bd 04 dc ec bd 18 da 73 3d
       -0.089589804 -0.032853685 -0.11565402 0.059534162
000080 a1 42 2c bc ea 23 c2 bd 1e 74 d6 3d b9 58 81 3d
       -0.010513932 -0.09479506 0.10471366 0.06315751
000090 4a b3 d8 bd 2b e6 45 bc 59 a6 03 bd f1 d8 8d bd
       -0.10581072 -0.012078802 -0.032141063 -0.06926144
0000a0 ac af 76 bc 4e e2 e5 bd bf 52 cb bc de 55 63 3b
       -0.015056532 -0.11224805 -0.02481973 0.0034688632
0000b0 c6 49 15 3e 8d ab ec bc 51 2a ab bd 6c 5b b9 bd
       0.14578924 -0.028890396 -0.083576806 -0.090506405
0000c0 4c b8 5d 3d ef 54 4d 3e 50 f9 0f bd 30 f2 59 3b
       0.054130837 0.20051931 -0.035149872 0.0033255927
0000d0 b4 44 c8 3d 5e 2d 7f 3d f2 90 20 3e 66 62 ac 3d
       0.09778729 0.062299125 0.15680292 0.084172055
0000e0 4e 6a 6f 3d ee 13 07 3e 17 21 6b bc ae a0 d3 3d
       0.05845099 0.13191196 -0.014351151 0.103333816
0000f0 68 09 13 3e 0a f6 b8 3b 08 88 29 3e 06 f9 3a bb
       0.14359057 0.0056445645 0.16555798 -0.0028529777
000100 f7 16 0e 3c 4f 73 69 bd 30 39 e3 3c 89 e7 a8 bc
       0.008672467 -0.056994732 0.02773723 -0.020618217
000110 4d 3f ef 3e 18 2b 16 bd 35 7e 93 bd cd d4 43 3d
       0.46727982 -0.03666219 -0.072018065 0.047810365
000120 ee 2a b7 bc f7 69 24 be 2f e5 38 be 6d 59 42 3d
       -0.022359338 -0.16056047 -0.18056177 0.047448564
000130 66 4c 22 3d 9e ec 28 bd c7 c7 a0 3e 36 af f0 bd
       0.03962364 -0.04124128 0.31402418 -0.11752169
000140 45 6d 00 be e1 01 46 be 2f 5f 80 3c 3c c8 d3 3b
       -0.12541683 -0.19336654 0.015670387 0.006463079
000150 f0 97 a3 bd d2 d9 24 be ac b0 6c bc b3 09 b4 bc
       -0.07987964 -0.16098717 -0.014446419 -0.021977281
000160 d6 b0 9f bd e2 6c de bc 37 0b f7 bd 9c 07 f6 bd
       -0.07797401 -0.027151529 -0.12062686 -0.1201317
000170 07 d8 39 be 73 35 bb bc cc 46 e3 bd 65 6f 8f bc
       -0.18148814 -0.022852635 -0.11097488 -0.017509172
000180 76 d7 0d be 01 ca 8e 3a 68 fe 2a be a1 d6 c4 bd
       -0.13851723 0.0010893942 -0.16698611 -0.0961125
000190 df d2 1d be 99 7b b9 3c 60 c5 42 bd f3 35 9f 3d
       -0.15412472 0.022641944 -0.047551513 0.07773962
0001a0 d0 12 0c be dd bc 8f bc 68 30 c4 bd b5 53 29 bf
       -0.13679051 -0.017546112 -0.09579545 -0.6614335
0001b0 a0 ea 43 bd e8 cf 5b bd 19 de 9c bb e3 a6 af bd
       -0.047831178 -0.05366507 -0.0047872183 -0.08576753
0001c0 9b 1e e6 bd b4 53 2d be e1 4c 96 bd c6 0a fd bd
       -0.11236306 -0.16926461 -0.07338882 -0.123555705
0001d0 f8 2d 42 3e d2 4c de bc 46 39 67 3d 3d b2 4f bd
       0.18962848 -0.02713624 0.056451105 -0.05070709
0001e0 b6 54 8b 3d 97 c6 7c 3d c3 4b d1 3c 7e 4c 45 bd
       0.06803267 0.061712828 0.025548821 -0.04816865
0001f0 b9 0d 3b bc 09 45 06 be 5f 35 1b be 28 79 7c bd
       -0.011416846 -0.13112272 -0.15157078 -0.06163898
000200 32 19 44 3d 25 b9 41 be 86 53 c8 3a 6b b7 4d bd
       0.04787559 -0.18918283 0.0015283681 -0.05022375
000210 ba 2a 8d 3d 7c 6e 23 be 20 f0 b0 bc 98 b4 c9 3c
       0.06892915 -0.15960115 -0.021598876 0.024622247
000220 68 93 04 3e 42 38 2a be 6c f0 a9 3d a6 97 53 3c
       0.12946856 -0.16623023 0.0829781 0.012914574
000230 0f d1 53 3d f9 30 fd 3c 8c 12 89 3d 62 1d f5 bb
       0.051713046 0.030907141 0.06692991 -0.0074803093
000240 94 d1 0f 3e d5 9e 9c 3d 12 a1 8e 3d f9 c5 b7 3d
       0.14044791 0.07647482 0.069643155 0.08973307
000250 d6 24 23 be 7e 71 6e 3d c8 5f 1d bd 3d bd 2a be
       -0.1593202 0.058213703 -0.038421422 -0.16673751
000260 82 14 15 be 8b ce b3 bc d8 52 91 3b b2 c7 19 be
       -0.14558604 -0.021949073 0.0044349246 -0.15017584
000270 9f fa 0f bd 66 72 18 bd 29 c3 5e 3d 19 57 9b bd
       -0.03515112 -0.037218474 0.054385338 -0.07584972
000280 0d ea 44 bd cf b7 dc bc 8b b9 2a 3e 4c 4d 88 3d
       -0.04807477 -0.026943116 0.16672342 0.06655368
000290 15 4d a8 3c 33 b9 db 3d de ef e7 3d 8e f1 03 bd
       0.020544568 0.10728683 0.11325048 -0.032212786
0002a0 d4 46 ad bd bc 36 67 3c d8 a1 71 bd a1 9a 82 bd
       -0.08460775 0.014112171 -0.058992237 -0.063771494
0002b0 11 53 2c bd bd 76 71 bd 2b b0 2a 3c 51 e1 80 bd
       -0.042071406 -0.05895113 0.010417978 -0.06292976
0002c0 78 38 06 bc 44 b7 86 bd 75 03 4d bd 43 3c cf bd
       -0.008192174 -0.06577924 -0.050052125 -0.10118916
0002d0 6f 2e a6 bd d9 5f 2b be 74 63 0e 3e 2e d5 44 be
       -0.08114325 -0.16735782 0.13905126 -0.19221947
0002e0 67 4d f7 3c 5b 6b c1 3d e6 4a 53 bd 5e bb 1e 3e
       0.030188276 0.094443046 -0.0515851 0.15501162
0002f0 d5 21 01 be a1 41 1a be 1f 93 42 be 89 ad 93 bd
       -0.12610562 -0.15064098 -0.19001435 -0.072108336

gru.weight_ih_l1 f4 [192, 64]
000000 95 34 98 bd 9b 36 2b bd 25 1c f6 bc ad 74 86 bd
       -0.07431904 -0.041800123 -0.030042717 -0.06565223
000010 6c d5 9f bd 6e 8a df 3c be b9 1b bd d5 33 d4 bd
       -0.07804379 0.027287688 -0.038018934 -0.10361449
000020 92 5e 78 3c 0f 36 09 be 81 81 ff bc db fe 5d bd
       0.015159266 -0.13399528 -0.031189682 -0.054198127
000030 a0 62 17 bd e7 7e 7f bc 72 9a 00 be f7 d5 a5 bd
       -0.03695929 -0.015594221 -0.12558916 -0.08097451
000040 04 11 0c 3e dc 2b 17 3e bd ef fe b9 fa 18 de 3d
       0.13678366 0.14762825 -0.00048625274 0.10844608
000050 2f 37 4d 3d c5 7d a5 bd 29 95 e4 bd 8f ad ff bd
       0.050101455 -0.08080629 -0.111612625 -0.124842755
000060 3d 67 6f bd 59 ae 8c bd af a6 94 3d e3 8b 89 bd
       -0.058448065 -0.06869192 0.07258355 -0.067161344
000070 5e 34 9f 3d a3 a7 a6 bd 3e dc 90 3d ff a1 d4 bb
       0.0777366 -0.08137443 0.07073258 -0.006489038
000080 4b 72 6f 3c 7d 0c 5f bc d6 62 fc 3d a4 29 a7 bd
       0.014614652 -0.013613817 0.12323539 -0.08162239
000090 6f 6f c4 3d 78 47 a2 3d b0 43 1d bd 67 ff aa 3d
       0.09591567 0.07923788 -0.03839463 0.083494954
0000a0 ea de df bd 73 a2 88 bc 54 b7 63 bd 90 6c 50 bd
       -0.10931189 -0.016679024 -0.055594757 -0.050884783
0000b0 d2 e5 5b 3d 9a 3b e0 bd 88 0b 9c bd 83 06 b0 3d
       0.05368597 -0.10948868 -0.07619387 0.08594992
0000c0 44 d1 ca bd 99 91 77 bd c6 08 1c 3d ad 40 8c bd
       -0.099031955 -0.060441587 0.038094305 -0.068482734
0000d0 b3 c7 99 bc 39 8e 25 be 1f 2a ba bd f8 c7 cd bc
       -0.018771982 -0.16167535 -0.09090065 -0.025119767
0000e0 ad 51 c6 3d 1f 9d 43 bc 29 dd c2 3c 9f 68 06 3e
       0.09683547 -0.011939316 0.023787098 0.13125847
0000f0 c7 b0 d4 bc af d9 b4 bd 9a 85 6a 3d f8 d1 b0 bd
       -0.0259632 -0.08830582 0.05725632 -0.08633798
000100 7b 47 8f bd 25 65 4f bd 19 26 0a bb ea 9f 48 bd
       -0.06996056 -0.05063357 -0.0021079837 -0.04898063
000110 87 8d 0d 3e a5 c5 00 be 68 00 ba bd 31 50 e5 bd
       0.1382352 -0.12575395 -0.09082109 -0.11196936
000120 c5 f1 46 bd 7f 01 d9 bd 79 f0 a3 3d e7 17 71 3d
       -0.048570413 -0.105959885 0.08004851 0.058860686
000130 55 ee 6a bd a3 3d de bd 66 9d 9a 3c 4d f2 fe bd
       -0.057356197 -0.108516 0.018873882 -0.12448559
000140 5f 02 7d 3d 65 96 ef 3d a7 86 ea 3b 5a 0c 9b 3d
       0.06176984 0.11698607 0.007157165 0.07570715
000150 50 ee 26 be cc 7b 86 3c c3 2b 1b be a2 fa 8e 3c
       -0.16301847 0.016416453 -0.15153413 0.017453495
000160 d8 ba aa bd 68 40 0f be 20 e2 65 bd fa 5e fa bd
       -0.08336419 -0.13989413 -0.056123853 -0.122251466
000170 50 dc 38 bd 6b a4 0a bd f1 9c 2f 3d 9a f6 13 be
       -0.04513198 -0.033848207 0.04287428 -0.1444954
000180 49 28 45 3d 7a 2a 2e 3d 74 81 78 3d 36 e7 e9 3d
       0.048134122 0.042520978 0.06067033 0.11421053
000190 92 8d 98 3c 61 c3 0f 3e 36 85 a4 3d 96 96 0f be
       0.018622193 0.14039375 0.080332205 -0.14022288
0001a0 0f d5 92 bd 87 77 bf bc 8b d3 1a 3e d0 ed 07 bd
       -0.07169544 -0.023372425 0.1511976 -0.03318578
0001b0 a2 79 dc bd 43 15 59 bd 15 77 63 3d 83 75 50 bd
       -0.10765387 -0.052998792 0.055533487 -0.050893318
0001c0 ff b5 ba bd c3 85 31 bd 85 38 df 3d 38 c2 0a be
       -0.09116744 -0.043340456 0.10899452 -0.13550651
0001d0 89 47 28 3d 66 1b e6 bc 50 c1 b4 3d 48 88 d8 bd
       0.041083846 -0.028089236 0.08825934 -0.105728686
0001e0 f8 00 0c 3e 8c 0e 6e 3d 3a c9 5e 3d 73 33 0f bc
       0.13672245 0.05811934 0.054391123 -0.008740294
0001f0 89 5d 93 3d 59 02 be 3c ab 31 0c 3d 40 fd 9d 3d
       0.07195575 0.023194479 0.034227055 0.07714319
000200 5f 51 25 bd 2e d9 c0 bd f0 95 c5 3d 82 72 ec bb
       -0.040360805 -0.09416424 0.09647739 -0.007215799
000210 43 aa 1d 3e 7a da 6a bd 0a 12 f2 bd 92 4f e0 bd
       0.15396981 -0.05733726 -0.11819847 -0.10952677
000220 a1 b8 1f 3e 5e 9e 0d be 89 10 f6 3d 7f 49 31 be
       0.15597774 -0.13829944 0.120148726 -0.17313193
000230 ef 33 35 be fe a0 23 be dd 16 ae bd 59 2b 21 be
       -0.17695592 -0.15979382 -0.085004546 -0.15739192
000240 4b 57 49 bd f9 ee 75 bd 42 25 ed 3c f3 1f 8a bc
       -0.049155515 -0.060042355 0.02894843 -0.016860938
000250 59 bf ad 3c 2e 95 f9 bd af 6f 77 3d 23 be de bd
       0.021209406 -0.12186657 0.060409244 -0.108761095
000260 1a 3b 69 bd f8 39 78 bd 04 80 4f bc a2 48 17 be
       -0.05694113 -0.06060216 -0.012664799 -0.14773801
000270 2a e0 d9 3d c1 50 4f 3d 1c bb da bc d1 22 ba 3c
       0.10638459 0.050614122 -0.026700549 0.02272168
000280 dc ef 08 3e 2f 9f c7 3d 61 9c 9b 3d 61 87 45 bb
       0.13372749 0.09747159 0.07598186 -0.0030140507
000290 4e 6a 14 3e b6 25 4c bc 3d 37 09 3e 2c 71 e2 3c
       0.14493677 -0.012460163 0.13399978 0.027641855
0002a0 3c 7c 0d be eb eb 52 bd ca 6b b1 3a 8d 1c d1 3d
       -0.13816923 -0.05149452 0.0013536152 0.10210524
0002b0 09 4a 0f 3c 2a f2 7f bd 4d f5 33 be 20 8b 4f bd
       0.008745679 -0.062486805 -0.17574044 -0.05066979
0002c0 2f 0e 3b 3d c2 2c e8 bd 40 31 45 3e da 0c 18 be
       0.045667823 -0.11336662 0.19257069 -0.14848652
0002d0 e8 bd 48 bc a1 d1 07 be 47 86 95 bd bc 49 af 3c
       -0.012252308 -0.13263561 -0.07301002 0.021397464
0002e0 e1 aa 00 3e 7c 42 cd 3d 78 33 17 be 0d d4 12 3e
       0.12565185 0.100224465 -0.14765728 0.14338703
0002f0 2c 41 3e 3d 8f d2 26 be 0e fb 25 be 0e 4f 80 bd
       0.04644887 -0.16291259 -0.16209051 -0.062650785
000300 d2 1b 2d bd f2 3c c8 bd cd c0 ba bc f2 1f 41 bd
       -0.04226286 -0.097772494 -0.022797013 -0.047149606
000310 55 36 6a bd c0 2e 0c 3e de 0a eb 3d d0 38 f4 3d
       -0.05718072 0.13689709 0.11476682 0.119248986
000320 35 ca 15 be 56 f7 30 3c 10 c0 e0 3b bc 77 b4 bc
       -0.14627917 0.010801157 0.006858833 -0.02202975
000330 11 da 26 3e 41 a4 b2 3c 9a d6 f7 3d 9d c6 0a bc
       0.16294123 0.021806838 0.12101479 -0.008470205
000340 9e 49 0b be bd c7 a8 bd 56 05 49 3d bd 57 99 bc
       -0.13602301 -0.08241222 0.049077354 -0.018718595
000350 b1 fc 2b bc e5 a2 36 bd 25 3e 22 3e 14 72 9e 3b
       -0.010497258 -0.044588942 0.15844019 0.0048353765
000360 1e 92 0b bb b5 73 13 3e fe 7f d5 bd 03 be f0 3d
       -0.002129681 0.14399607 -0.10424803 0.11754992
000370 23 75 03 be 93 05 c2 bd db 31 72 3b 97 a7 ac bd
       -0.12837653 -0.094737194 0.0036955986 -0.08430403
000380 c1 77 3f 3d 61 2c b4 bd 45 a0 04 bd 84 48 7f 3d
       0.046745066 -0.08797527 -0.032379407 0.062325016
000390 ad dd 06 be 8e ad 18 3d c1 cb fa bc 1e 08 61 bc
       -0.131705 0.03727489 -0.030614736 -0.013734845
0003a0 78 29 9a 3d c2 36 e1 bd a2 38 df bd ca 4b 84 bd
       0.07527441 -0.10996772 -0.10899474 -0.06459768
0003b0 03 18 a3 bd 11 8d 8b 3d 95 56 2a bd 81 a8 bd bd
       -0.07963564 0.06814016 -0.041586477 -0.09260655
0003c0 5a 19 f7 3d 2f 58 bd 3d e8 07 6e 3d dc 70 42 3c
       0.12065382 0.09245335 0.05811301 0.011867728
0003d0 fd b7 9e bd 0b df 0a 3e 7d c6 87 bc 09 c4 ae 3d
       -0.07749937 0.13561647 -0.016574139 0.085334845
0003e0 a3 be e9 bd 50 29 a2 bd d0 a9 9b bb f6 5a 15 be
       -0.11413314 -0.07918036 -0.004750468 -0.1458548
0003f0 c6 70 2c bd 4e b1 92 bd 86 a8 7e 3b 1b 54 0a 3e
       -0.042099737 -0.071627244 0.0038857772 0.13508646

gru.weight_hh_l1 f4 [192, 64]
000000 88 79 c0 3c d6 3f a7 3d 48 96 9e 3d 7c 53 da bd
       0.02349545 0.081664726 0.077435076 -0.10660455
000010 36 07 bf 3d 88 4b a4 3c d0 62 4b bd bc 11 f3 3d
       0.09327547 0.020055547 -0.04965478 0.11868617
000020 5c 20 15 3d 34 15 ab 3d 78 a4 8e 3d 40 83 f0 3d
       0.036407813 0.083536536 0.06964964 0.11743784
000030 72 29 92 3d 90 5b f9 bd 9e 46 9b 3d d0 da 2e bd
       0.07136811 -0.12175667 0.075818285 -0.042689145
000040 ec a7 6a bd 96 09 e5 3d 38 5a ea bc 2e 49 c8 bd
       -0.05728905 0.11183469 -0.028607473 -0.09779583
000050 46 51 d1 3d c0 24 cc bd 20 40 ff 3d d8 bc 20 3d
       0.1022058 -0.09967947 0.12463403 0.039242595
000060 a2 84 a3 3d 96 ef cb 3d f4 e2 c8 3d 0a f2 a1 3d
       0.07984282 0.09957807 0.09808913 0.079074934
000070 94 1f 31 bd 88 c9 48 3d 12 4f d1 3d 20 f4 93 bd
       -0.043243006 0.04902032 0.102201596 -0.072242975
000080 1c f4 06 bd 2e e3 bb 3d 58 03 a9 bd e0 f5 c2 bd
       -0.032947645 0.091741905 -0.08252591 -0.09519553
000090 f2 16 89 3d 26 d1 87 bd 76 2f af bd d8 d5 f5 bd
       0.066938296 -0.06631689 -0.08553974 -0.12003678
0000a0 20 b2 ba bc c0 3b c2 bc ec 1b f8 bd b0 cf f2 bd
       -0.022790015 -0.023710132 -0.12114701 -0.118560195
0000b0 c0 2f c7 bc de cb d5 bd 30 b1 9a 3d 14 4c 8d 3d
       -0.024314761 -0.10439275 0.07553327 0.068992764
0000c0 30 d5 82 bd 0c 76 0e 3d 3a 55 f9 bd 58 cd 3c 3d
       -0.063883185 0.034780547 -0.12174459 0.04609427
0000d0 dc 22 0b 3d 80 26 45 bc 78 4b 5d bd 30 3b c8 bc
       0.03396879 -0.012033105 -0.05402705 -0.024442285
0000e0 94 b1 a0 3d 48 d1 0c bd 40 c8 32 bc 20 8d fe bc
       0.0784637 -0.034379274 -0.010912001 -0.031073153
0000f0 90 90 e3 bd 20 a8 a0 bd a8 51 89 3c f0 74 fb bc
       -0.111115575 -0.07844567 0.01676257 -0.030695409
000100 bc f0 ef 3d 1e 53 e9 3d cc a3 69 3d da 3d 89 bd
       0.11715838 0.113928065 0.057040974 -0.067012504
000110 64 8a c8 bd 54 7b 67 3d 34 d2 ed 3d 1c 3f ec bd
       -0.09792021 0.0565141 0.11612359 -0.11535475
000120 9c 46 89 3d 60 2d f4 bc 16 a9 b5 3d 6c 18 9c 3d
       0.06702921 -0.029806793 0.08870141 0.076218456
000130 e0 0c 6a bd 3c e4 0c 3d 00 fe d5 39 b8 43 1a 3d
       -0.057141185 0.03439735 0.0004081577 0.037662238
000140 62 ed fb bd 50 a7 8e bc a6 aa b4 bd 0a fb 83 bd
       -0.123011366 -0.017413765 -0.08821611 -0.06444366
000150 8a 3f e2 3d 6e 02 94 bd fe 23 9e bd a0 ef 0e 3d
       0.11047275 -0.07227026 -0.07721709 0.034896493
000160 fe 8a fc bd 20 35 93 3b 90 84 68 3d ea da b1 3d
       -0.12331198 0.004492417 0.056767046 0.08684333
000170 3e 43 9e 3d 10 fe 0e bd 60 ee d2 bc 1c ea b6 bd
       0.07727669 -0.03491026 -0.025748432 -0.089313716
000180 2e ff 9e 3d 88 7c b5 3d 34 a7 b9 3d 40 8d 4b 3d
       0.077635154 0.08861643 0.090650946 0.049695253
000190 c0 d7 0d bc d2 e0 ae 3d d8 de 81 bc 88 24 06 bd
       -0.008657396 0.08538975 -0.01585333 -0.032749683
0001a0 84 91 b5 3d 60 1f 7c bd 70 f3 6b 3d 1c bd f8 3d
       0.088656455 -0.06155336 0.057605207 0.12145445
0001b0 f6 bb c3 3d a0 3d d7 bc e8 28 4f bd b0 00 52 3c
       0.09557335 -0.026274502 -0.05057612 0.012817547
0001c0 40 ed 02 3c 20 99 9b 3d 40 9a 24 bd e4 19 2b bd
       0.007991135 0.07597566 -0.040186167 -0.041772738
0001d0 08 bc 98 bc 60 a6 59 3d 6e 9d cf bd 34 f8 dd bd
       -0.018644348 0.053137183 -0.10137449 -0.108383566
0001e0 80 0a 92 3a 58 ef 71 3d 8e 5c d3 3d 8a f5 8e 3d
       0.0011142045 0.059066147 0.10320388 0.069804266
0001f0 c4 bd a4 3d 02 f5 af 3d 3c 1a 1d 3d ea ad e2 bd
       0.080440074 0.085916534 0.038355097 -0.11068328
000200 00 3a c7 bb 10 b4 74 bd 54 3f f0 3d c0 ca cf bb
       -0.006079912 -0.059742033 0.11730829 -0.0063413084
000210 e6 02 e7 3d 90 bc 56 bd 38 1f 48 3d 24 6c 9c bd
       0.1127985 -0.05242592 0.048857898 -0.07637814
000220 30 28 a8 3c c4 83 bd bd 92 5d c2 bd 30 89 f6 3d
       0.020526975 -0.09253648 -0.09490503 0.12037885
000230 14 b4 4a 3d 6c 98 67 3d b0 c1 19 3d b0 e0 60 bd
       0.049488142 0.056541845 0.03753823 -0.05490178
000240 6c cf fc 3d f4 da 97 3d 88 28 79 3d e6 ac cc bd
       0.1234425 0.07414809 0.06082967 -0.09993915
000250 6e 34 b0 bd a0 b7 47 bc 96 b9 b4 3d 58 20 39 3d
       -0.0860375 -0.012189776 0.0882446 0.04519686
000260 1c 69 d1 3d 50 02 f6 bc d4 d9 14 3d c0 4b 45 bc
       0.10225126 -0.0300304 0.03634055 -0.012041986
000270 d4 27 a9 3d 7c 95 45 bd 98 89 bc bd 70 6e 25 bc
       0.0825955 -0.048238263 -0.092059314 -0.010097131
000280 94 31 67 3d 94 40 7e bd 74 dd 25 3d b8 1d 78 3d
       0.056443766 -0.062073305 0.040494397 0.060575217
000290 a6 d1 d0 bd 60 e2 f6 bd ee 95 d8 3d 64 ce ef 3d
       -0.10196237 -0.12054896 0.10575472 0.11709288
0002a0 16 c6 f8 bd a0 76 cb 3c 70 62 fd bd 70 de 22 3d
       -0.12147157 0.024836838 -0.12372291 0.039762914
0002b0 c0 a9 19 bd 26 96 aa bd 80 57 9c 3d 38 06 ed 3d
       -0.0375154 -0.0832942 0.07633877 0.11573452
0002c0 80 a6 59 bb b0 03 68 3d e0 0e bd bb 12 f5 e3 3d
       -0.0033210814 0.05664414 -0.0057695955 0.11130728
0002d0 14 20 eb bd 24 af 57 bd 1c fd ae 3d c2 4e bd 3d
       -0.11480728 -0.05265726 0.085443705 0.092435375
0002e0 70 6a 90 3c 44 6d d6 3d da e6 f2 3d 2e 0d a2 3d
       0.017628878 0.104700595 0.11860438 0.0791267
0002f0 c4 73 a7 bd 90 98 7e 3c 20 f1 24 3c e0 06 24 bc
       -0.081763774 0.015539303 0.010067254 -0.010011405
000300 66 31 d2 3d 88 83 b7 bc f0 85 f3 bd be 4f ce bd
       0.10263328 -0.022401586 -0.11890781 -0.10073803
000310 1c e6 0d 3d d8 8a 39 3d 38 f4 33 3d 78 44 83 3d
       0.034643278 0.045298427 0.043934077 0.06409544
000320 62 d3 8f 3d 38 f1 a9 3c 08 0d 00 bd e8 5d 3e bd
       0.0702274 0.020744905 -0.031262428 -0.046476275
000330 ce 53 f5 3d e4 a3 70 bd c8 ae c0 bc 78 78 b0 bd
       0.11978875 -0.05875005 -0.023520842 -0.086167276
000340 68 f6 81 bd 80 8c da ba 8c 99 61 bd 2c 52 99 bd
       -0.063458264 -0.0016673952 -0.055078074 -0.07486376
000350 30 90 c2 3c 84 bf 27 3d f4 d5 ed bd 78 63 46 bd
       0.023750395 0.040954128 -0.11613074 -0.048434705
000360 20 b5 f6 3b cc 6d 09 bd 20 7b d4 bd 70 6d 45 bd
       0.007528916 -0.033551976 -0.10375047 -0.04820007
000370 28 ae ba 3d ea 67 a1 bd e4 9a a2 3d 18 c8 64 bd
       0.09115249 -0.07881148 0.07939699 -0.055854887
000380 b4 fb 3e 3d ea ad e1 3d c6 32 ca bd bc 97 ed 3d
       0.04662676 0.110194996 -0.098729655 0.11601207
000390 b0 5a 5c bc 1a ef c9 3d 12 fb f8 3d 30 e9 a6 3d
       -0.013449356 0.09860058 0.12157263 0.08149946
0003a0 c4 86 fe 3d f2 98 dd 3d 70 a4 7b bc 68 5e e0 bd
       0.12428048 0.10820188 -0.015359029 -0.109555066
0003b0 d0 7e 61 3c 04 df 77 bd 1e fa a3 bd 2a 0f c4 bd
       0.013763145 -0.06051542 -0.080066904 -0.09573205
0003c0 00 35 2d 3d 44 54 a9 bd c8 aa c2 bd 18 52 53 bd
       0.042286873 -0.082680255 -0.0950523 -0.051591963
0003d0 42 91 95 3d 68 c3 16 3d 3a 30 ed bd f0 66 ac bc
       0.07303096 0.036807448 -0.11581464 -0.021045178
0003e0 dc 7c 0d 3d 7c 13 c5 3d 62 9a ad 3d 16 7d 99 3d
       0.034542903 0.09622857 0.08476712 0.074945614
0003f0 06 dc da 3d 1c 79 ab 3d ac ac 6d 3d a0 4f ee bd
       0.106864974 0.08372709 0.058026 -0.11636281

gru.bias_ih_l1 f4 [192]
000000 5b 62 12 bd 3f ab a5 bb 83 20 a5 bd d9 88 a1 3d
       -0.03573833 -0.0050558145 -0.08062842 0.0788743
000010 d6 4c 73 bd da 3e b3 bd 24 f6 ac 3d 36 99 e6 3d
       -0.05939945 -0.08752222 0.08445385 0.112596914
000020 e0 2d 4b bd de 71 9f bd 58 de 8f 3d 05 a5 e7 bd
       -0.049604297 -0.0778539 0.070248306 -0.11310772
000030 68 d0 b1 bb c0 85 06 be fb 1a 59 3c c6 b7 86 bd
       -0.0054264553 -0.13136959 0.013251062 -0.06578021
000040 3e 4c 21 bc 28 78 2a bd 33 6a f9 bd 3c 61 5b bd
       -0.009844838 -0.041618496 -0.12178459 -0.053559527
000050 40 bc c6 3d 80 32 91 bd 02 e5 24 3e cb 2f d9 bc
       0.097038746 -0.0708971 0.16102985 -0.026512047
000060 ad d0 15 be 6f 15 90 bd 01 7a 0d 3d 3f ce 1c be
       -0.14630385 -0.07035338 0.03454018 -0.15313052
000070 3c bc 27 3d 16 92 03 3d 4a 37 90 3d c6 46 fc bd
       0.040951 0.03212174 0.070417956 -0.123181865
000080 03 32 92 bd 1f ab c3 bd d8 85 37 3d 2f d9 d3 3d
       -0.07138445 -0.09554123 0.044805378 0.10344159
000090 fd e2 aa 3d b6 ac 2b bd f0 c6 00 bd 59 a5 e0 3d
       0.08344076 -0.041912757 -0.03143972 0.109690376
0000a0 79 a5 1c 3c bc ba 01 be 19 d2 61 3c 4f 60 ab 3d
       0.009560936 -0.1266889 0.013783001 0.08367979
0000b0 cd 52 e3 3c 74 ba 31 3d ba 0c be 3d 3e d7 25 3e
       0.027749443 0.043390706 0.09279771 0.1619539
0000c0 3d 2d f2 bd 13 74 08 be ad ed 18 bd 0e 74 a1 3d
       -0.11825035 -0.13325529 -0.03733604 0.07883464
0000d0 c9 5f c2 3d 98 d9 1d 3c 9f 54 b6 bd ed 46 e9 bd
       0.09490926 0.009634398 -0.08902859 -0.11390481
0000e0 d0 76 20 3e f5 af 12 3e ad 41 bb 3c 7c 0c df 3c
       0.15670323 0.14324935 0.022858465 0.027227633
0000f0 18 37 13 be 61 d1 10 3e 49 51 73 3d 25 fe eb 3d
       -0.14376485 0.14142372 0.05940369 0.115230836
000100 8a 34 47 bc ae 90 9b bd 89 40 1c 3c c0 63 a0 3c
       -0.012158522 -0.07595955 0.009536871 0.019578815
000110 6c 3d 3b bd 3d 55 14 be e9 d4 18 be 42 31 cb bd
       -0.045712873 -0.14485641 -0.14924969 -0.099215046
000120 7d 8c e2 bd 4a 1a 58 3b 5f 84 30 be ca 55 cb bd
       -0.11061952 0.0032974654 -0.17237996 -0.09928472
000130 f0 4e ee 3c 2a 38 d5 bd df 11 81 3d cd 24 02 be
       0.029090375 -0.10411103 0.06302237 -0.12709351
000140 71 32 31 bd fc 13 27 bd 7c d2 95 3d ca d6 b4 bd
       -0.043260995 -0.040790543 0.07315537 -0.0883003
000150 a1 eb 03 3d 3f cf cd 3d 75 99 93 3c 1c ab 8b bc
       0.032207135 0.10049295 0.01801751 -0.017049365
000160 a0 7e f1 bc b7 1f 6c bc e3 9c 82 bc 62 4f 10 3d
       -0.029479325 -0.014411858 -0.01594395 0.035231955
000170 47 b2 31 be 83 9f 96 bc ca 52 da bd 20 fd 8c 3c
       -0.17353164 -0.018386608 -0.10660322 0.017210543
000180 21 a3 22 bd d3 ed 62 3c 55 a9 0a 3b bc 67 d8 bc
       -0.039706353 0.013850647 0.0021158059 -0.026416652
000190 fb ae 09 3d 89 f8 37 3b 92 16 a6 bd ff 2c 13 3e
       0.03361414 0.0028071722 -0.08109774 0.14372633
0001a0 fc d2 9d bd b3 bc 4b 3d 57 6c 4b bd 40 d8 4e 3c
       -0.07706258 0.049740504 -0.049663868 0.0126248
0001b0 03 bd 44 bc b9 5a 8c 3c 5d 70 21 3d e7 23 0e be
       -0.0120079545 0.017133104 0.0394138 -0.13880883
0001c0 dd 0d 40 bd 0c f3 1b be 07 3b a1 bd 2a 93 dd bd
       -0.04688822 -0.15229434 -0.07872587 -0.10819085
0001d0 2f 25 29 be 01 ec 8c bd a1 37 0c 3b ca 8a 66 bc
       -0.1651809 -0.06880952 0.0021395462 -0.014071176
0001e0 36 86 87 bd 7e d5 81 bd bf eb 5e 3d e7 eb 82 3c
       -0.066173956 -0.063395485 0.054424044 0.015981628
0001f0 ae f8 61 bc 23 73 d0 bc 1a 7a ea 3d 36 4d d0 3d
       -0.0137922 -0.025445526 0.1144907 0.10170977
000200 c1 cf b9 bd 22 a1 0f 3e b9 ac b1 3c 2f f2 d3 bd
       -0.09072829 0.14026311 0.021688806 -0.10348927
000210 a1 88 a8 3d 25 36 d4 bd ba 99 85 bd fc d7 e5 3d
       0.08229185 -0.1036189 -0.06523462 0.112228364
000220 49 d9 82 bd bb 86 77 3d 6d e9 25 bd 56 f0 11 3e
       -0.063891 0.060431223 -0.040505815 0.14251837
000230 4f ad 1c be ab 1b 31 be 43 41 62 bd 8b b2 73 3d
       -0.15300487 -0.1729571 -0.05523802 0.059496444
000240 8c 89 cd 3d 84 dd 02 be 23 76 20 bd 56 c0 a8 bd
       0.100360006 -0.12779814 -0.039175164 -0.0823981
000250 82 a9 83 3c 9e 7c 2d be c2 a4 b8 bd ac 7d c2 bd
       0.016072039 -0.16942069 -0.090158 -0.09496626
000260 b8 9b 58 bd 0a 89 f7 bd c5 7a b5 bc 5e b5 35 3d
       -0.05288288 -0.12086685 -0.022153268 0.04436242
000270 eb 2c 9b bd dc fb ed bb 9c f4 c6 bd 89 22 fc 3d
       -0.07576927 -0.00726269 -0.09714624 0.123112746
000280 4d c0 3d bc bf e8 27 bc 9f c0 09 3e 92 6d d1 bd
       -0.011581493 -0.010248362 0.13452385 -0.10225977
000290 2b 2a a2 bd 38 79 7f 3d 38 c5 09 3e 36 85 23 bd
       -0.07918199 0.062371463 0.13454139 -0.03992196
0002a0 6c bc 19 bd fe de d7 3c e4 0b ce bd 19 d6 a3 bd
       -0.03753321 0.026351448 -0.10060862 -0.0799982
0002b0 83 cc 0d 3e a1 51 3f 3d a7 8f 86 3d 91 88 a0 3d
       0.13847546 0.046708707 0.06570368 0.07838548
0002c0 9f 9b c4 3d 81 1d cf 3c b5 08 8a bd 32 5d 88 bc
       0.09599995 0.025282623 -0.06739942 -0.016646001
0002d0 ee d3 7f bd 2d 70 cb bd 50 ce e2 bd 07 9b 22 3e
       -0.06245797 -0.09933505 -0.11074507 0.1587945
0002e0 3d c2 2a bc 6a 0e 11 3d 92 e8 64 3d a2 ec 0d 3c
       -0.010422287 0.035414137 0.05588586 0.008662375
0002f0 1e 78 11 be 51 5a df 3d ec 9f 12 3d 98 9a c6 3c
       -0.14205977 0.10905898 0.035797045 0.024243638

gru.bias_hh_l1 f4 [192]
000000 c7 59 ad ba 63 e4 64 3d 10 ab 2b bd b5 8c d7 3c
       -0.0013225608 0.05588187 -0.041911185 0.026312212
000010 4a e4 2c 3e de 58 24 bc d5 50 b2 3d 4a 4e 06 bd
       0.1688396 -0.010030953 0.08706824 -0.032789506
000020 3e 9a 9f 3c 88 ee 7d bd e5 70 13 3e 52 13 00 be
       0.019482728 -0.06199506 0.14398535 -0.1250737
000030 81 f3 90 3d 8a 65 6c 3d 08 a2 01 be 26 18 9f bd
       0.07077695 0.057714023 -0.12659466 -0.07768278
000040 23 09 92 3d 25 41 01 3e 67 2d 0d be 69 c2 85 3b
       0.07130649 0.12622507 -0.13786851 0.0040820134
000050 f2 96 3d bd 9a 02 ed bc 36 2c 14 3e 85 36 d5 3d
       -0.04628653 -0.028931905 0.1446999 0.104107894
000060 c4 3c 93 bc af 8c eb 3d 1e 13 8f 3c d8 67 0b be
       -0.017973311 0.11501443 0.01746517 -0.13613832
000070 2e 31 92 3d d6 34 f3 3d 51 5b a1 bd b7 89 aa 3c
       0.071382865 0.11875312 -0.07878745 0.02081762
000080 ce 4f 68 bd 5e da c1 b8 b8 9d 84 bd 97 c8 ab bc
       -0.056716733 -9.243631e-05 -0.06475395 -0.020969672
000090 0a 53 5f bd 0b ae cc 3a c5 5d 79 3d 5d 99 01 3e
       -0.05452255 0.0015615834 0.06088044 0.1265616
0000a0 a9 43 ef 3d 16 b4 ae bd 81 b9 88 3d 56 4b a6 bc
       0.11682827 -0.085304424 0.06676007 -0.020299595
0000b0 48 40 ff 3d 5a 64 87 3d 4c 27 d3 3d 4e 6a 07 3e
       0.124634326 0.066109374 0.1031023 0.13224146
0000c0 d5 34 c0 bd 9c a5 cc bd 7f 10 2a 3e 89 84 19 3d
       -0.09385077 -0.09992525 0.16607855 0.03747991
0000d0 42 f0 02 3e 29 ed f1 ba 91 ac 21 3d 36 7a 7f 3d
       0.12786964 -0.001845752 0.039471213 0.06237241
0000e0 8d 28 ba 3d 98 52 61 bd 5f 85 d2 3d b1 69 26 bd
       0.09089766 -0.05501041 0.10279345 -0.04062814
0000f0 32 ce 8a 3c 1a 50 e5 bc df 5d c7 3d 00 21 c8 bb
       0.016944025 -0.027992297 0.09734701 -0.0061074495
000100 c8 8c 29 3d a8 33 a5 bd 09 4a e3 bd b3 9f a3 bd
       0.041394025 -0.08066493 -0.110981055 -0.079894446
000110 fc 66 5e bd 1d 9b 1f bd 32 2c cd bc 6a 17 c5 bd
       -0.054297432 -0.038966287 -0.025045488 -0.096236065
000120 f7 de 34 be 01 bb 97 bd 02 d2 81 bc 92 9c 16 bd
       -0.1766318 -0.07408715 -0.01584721 -0.03677041
000130 bf ca 24 bc 10 87 c2 bd bf 57 e8 bd 82 3a 94 3c
       -0.010058104 -0.094984174 -0.11344861 0.018094305
000140 e3 27 f9 bd fe 32 42 bc ec b6 0b 3d 40 65 53 bd
       -0.12165811 -0.011852978 0.034109995 -0.05161023
000150 95 55 09 be 77 c6 a4 3d b9 07 e2 bd 23 b5 d0 bd
       -0.13411553 0.08045667 -0.11036629 -0.10190799
000160 76 09 b9 bd 48 2b 7d 3d 41 bb 2c be de 1f fa bc
       -0.09035008 0.061808854 -0.16868307 -0.030532774
000170 01 6a 06 bd da 33 13 be dc bc fe bd a5 2e c8 bd
       -0.032815937 -0.14375249 -0.12438366 -0.09774522
000180 92 0e 62 bc 0b e3 de 3c d3 fb be bd e4 32 49 bd
       -0.013797419 0.027207872 -0.093253754 -0.0491208
000190 8a 6a 89 bd 45 a3 c1 bc 41 db bd 3a 17 14 97 3d
       -0.06709774 -0.023637423 0.0014484898 0.07376879
0001a0 e0 1f 8c 3b a0 b2 e0 bd 47 8e 51 bd 9f 37 23 be
       0.0042762607 -0.1097157 -0.051161077 -0.15939187
0001b0 93 0f 0e 3c ff 67 39 bd 39 3e 47 3d 23 24 2f 3b
       0.008670705 -0.045265194 0.048643325 0.002672442
0001c0 a8 17 90 bd 2e ea 9a bd e9 45 33 be 9e bf f7 bd
       -0.07035762 -0.075641975 -0.17507137 -0.12097095
0001d0 53 b1 f5 bc 4a 14 36 bb ac de 3b be 9b 52 95 bd
       -0.029991781 -0.002778309 -0.18346661 -0.07291146
0001e0 b9 34 50 bd 03 a1 ec bc 5b 4c 10 ba 7a a8 8e bd
       -0.05083153 -0.02888537 -0.0005504542 -0.06965728
0001f0 81 9c c4 bd e5 ea 0a 3d d4 ee b0 3d d7 3e a3 bc
       -0.09600163 0.03391542 0.08639303 -0.019927425
000200 85 87 28 be 53 dd 1e 3e 52 e7 cc 3d cd d5 92 3d
       -0.16457947 0.15514116 0.10005058 0.071696855
000210 c5 28 18 3e 63 79 ce 3b 5f f9 12 3d a9 4d dd 3d
       0.14859302 0.0063010915 0.03588235 0.10805828
000220 86 45 2a be 0a f7 0b 3b ab c6 2b 3d 06 c9 90 bd
       -0.16628084 0.0021356964 0.04193751 -0.07069592
000230 29 de 10 3c 33 f6 28 3d bf b1 61 3d 7f cd 05 3b
       0.00884203 0.04125042 0.055101153 0.0020416675
000240 5d e8 a5 bd ed 22 1a be 22 e5 ac bd f4 22 f4 bd
       -0.081009604 -0.15052386 -0.08442141 -0.11920729
000250 e9 3b c9 bd f4 ed 54 3c 17 93 41 bd 20 8c 10 be
       -0.0982588 0.012996186 -0.047259416 -0.14115953
000260 b2 95 87 3c 68 d4 93 bd 99 f6 02 3e 54 ab 7b bd
       0.016550872 -0.07218248 0.12789382 -0.061442688
000270 21 4a 18 3d 3f 14 aa bd 72 11 4e bc 71 66 68 bd
       0.03718007 -0.08304643 -0.0125774015 -0.05673832
000280 83 1c 2a 3e 73 03 a0 3c f5 af 19 bc 61 29 b1 bd
       0.16612439 0.019532895 -0.00938033 -0.086504705
000290 bb e8 32 be d4 26 f8 3d 2a 93 28 bd bb 62 c2 3d
       -0.17471592 0.12116781 -0.04115597 0.094914876
0002a0 7f ac 19 3e bd aa 77 3b 4f f7 a6 3c 37 1b 1c be
       0.15007208 0.0037790977 0.020381598 -0.15244757
0002b0 b5 91 2a 3e 73 c6 e3 bd f9 46 27 3e 82 bd 25 3e
       0.16657145 -0.111218356 0.16335668 0.16185573
0002c0 8b 41 7a 3c 79 ae 59 bd b0 da 44 bd d6 73 1f bd
       0.015274416 -0.053144906 -0.04806012 -0.03892883
0002d0 18 41 2e be 93 3d 26 be cd 12 99 3d 77 47 79 bd
       -0.17017019 -0.16234426 0.07474289 -0.06085917
0002e0 ea f0 9a bd 46 63 f4 3d 69 67 f6 bd 27 94 0c bd
       -0.07565482 0.119329974 -0.12031443 -0.034320977
0002f0 db 08 23 3d 5e 19 df 3d ae 94 83 bc 84 28 56 bd
       0.039803367 0.1089351 -0.016062107 -0.052284732
