lstm_model.pth (torch, 206690 bytes, 9 tensors)

lstm.weight_ih_l0 f4 [256, 2]
00000000: b5b3 8b3c c8de 25bd 08f1 9b3d ae45 093e
00000010: 53c8 233c de08 4b3e 6d2f ab3c 0053 dd3d
00000020: e857 6fbd 1706 413e 6988 f4bd 48f3 a43d
00000030: cfb3 a2bd 105e 26b9 4dd7 23bd b259 fb3b
00000040: 68bb b13d 4b75 533d caf7 963c 8edc 103b
00000050: 0c29 8d3d ba7c 4dbd 02c1 113e 8c26 cc3d
00000060: ab21 1a3e 7865 41bc 93a7 c63d 5832 b83d
00000070: 164e 8a3c 1e78 7e3d 7c91 113e 5a96 91bc
00000080: 76fb 943d 4178 683e 347b 983c 71f1 313d
00000090: 38cf 893c c55f 383d 192c d93d 1185 80bd
000000a0: feee 2e3d 3f64 c6bc f339 863c 9a01 41bc
000000b0: 67c3 263e b0d0 e13d e484 953c 3219 a53d
000000c0: bbfa 0f3e 8807 4a3d d708 11be 22d4 ec3d
000000d0: 28ba 8e3c c07c 3e37 2e7a 293e 1b1b e43c
000000e0: 0234 503d 14cf f63d 9c5e 8e3d 50e8 9f3d
000000f0: ea38 653c 6321 883d 8a9a b63d 501e 383c
00000100: ece1 653d 308b 4a3e 9e95 863c d9ff e33c
00000110: 861c 863c 830e e23c a36d cc3d 2473 203d
00000120: af95 d93d 18f6 89bd 34bb 9e3d 89b2 a73d
00000130: 117c 5e3c 5335 aa3d 864d 55be 0c1a 033e
00000140: 2a2b 393e 6cb2 f63d 7fd8 c23d df00 1d3e
00000150: d8b5 9f3c 7532 3a3e 639b 823c f2a8 4dbc
00000160: e994 34bd dee2 263f b842 f0bc 06e1 d13d
00000170: a944 863d 29b5 26bd 43db 00be 066b 103e
00000180: 4b84 7c3c 2bef 843d 24b7 843c 694b 733d
00000190: 1fa9 883c df44 863d d45b 063e f3d0 153e
000001a0: 64fe 733c 643c 123d 92b8 173e ecd3 9a3d
000001b0: 8092 883d eaeb c03d b557 e33d 0d62 793c
000001c0: d0ce e73d ecc2 023e b183 efbd da48 c13d
000001d0: 408c 093d 536f 65be 5777 163e c611 063e
000001e0: 2bb8 32be 4763 b33d e416 e9bc d4fa 533e
000001f0: dfd2 0f3e a1e8 373e b525 633c 8f17 dc3d
00000200: 4cd2 343d 5852 c63d 3487 81bd b877 b43d
00000210: f4a7 93bd d0c3 88bc e857 c3bd 9c2f ddbd
00000220: 62ed cf3d a4f6 a83d b8c4 f0bc e406 8cbd
00000230: 7c5b b1bd e072 3dbd 84d1 e9bd 8cf9 5ebd
00000240: b260 d63d b00a 5ebd 12e2 803d 0c9e 853d
00000250: 0226 a13d d290 833d 649b f33d c4ac 3a3d
00000260: 8cb7 18bd f00d b83d b0e4 a1bc 5cff fcbd
00000270: 5036 00bc 78b8 99bc 220f eabd 8000 d13d
00000280: e229 c1bd b04c fcbd a4e9 56bd f02a 92bc
00000290: 406d cfbd 7c53 413d 0800 eb3c 5892 a43c
000002a0: 2e73 fdbd a044 bcbb 68e3 9dbd fa01 8a3d
000002b0: a871 b9bc 842b 07bd 0c3c 9bbd 12c5 a2bd
000002c0: 3467 833d 70d2 08bd 6022 cdbc a889 e13c
000002d0: 7ccf 433d 82e0 8c3d 8071 1ebb 3095 dd3d
000002e0: b41a 723d ba87 e6bd 5027 b7bd 6a49 dd3d
000002f0: 7498 f23d f0c9 f1bc 2890 c13c 2c6a 47bd
00000300: 086e 583d 0821 8b3d c658 cfbd e032 47bc
00000310: 9cd8 55bd 268e b5bd 00dc 243a f8d4 8abd
00000320: 8417 603d a0a0 c93b a090 983b a4ef 82bd
00000330: 804d 28bb 7a24 f73d 0072 7dba 00fc 1fbc
00000340: b681 b63d 6cb8 b13d fab4 b93d e88d c2bc
00000350: 4cc9 d03d 4e7b 9d3d 1496 6fbd 42bb e23d
00000360: 9cf2 33bd 6ad1 a63d c8bc 36bd 80f9 f2ba
00000370: 9473 5cbd 547d d2bd bc85 f63d 74c3 bebd
00000380: e075 9fbc 3055 f0bc 6e81 a73d 4c24 e1bd
00000390: 8631 863d e86a fabd 5a8e a53d a8de 483d
000003a0: ce42 863d 362b b63d d8cd 823c ec69 193d
000003b0: 08a9 a63d 5083 f3bd d2ea c0bd ccf7 f53d
000003c0: 3a1e dcbd 66f5 e8bd 1e7f c2bd 9cdb 59bd
000003d0: 6e49 e83d 9a85 b33d a2e1 bd3d d0bd 203d
000003e0: 6050 d73d 5469 213d e051 513c 6e30 8ebd
000003f0: b22b 8b3d 401b ea3c 7e15 8c3d 14c3 cf3d
0.017053464 -0.040495664 0.076143324 0.13405487 0.0099964915 0.19827601 0.020896638 0.108068466
-0.058433443 0.1884998 -0.11940081 0.08054215 -0.07944452 -0.00015866035 -0.04000025 0.0076706046
0.08678323 0.05162553 0.018428702 0.0022104117 0.06892595 -0.050167777 0.14233783 0.0996829
0.15051906 -0.011803977 0.09699931 0.08993977 0.016882937 0.06212627 0.14215654 -0.017771889
0.07274525 0.22702123 0.018613435 0.043443147 0.016822442 0.045013208 0.10604114 -0.062753804
0.04270839 -0.024217723 0.016385054 -0.011780167 0.16285478 0.11026132 0.018251844 0.08061446
0.1406049 0.04932359 -0.14163528 0.115638986 0.01742275 1.1353928e-05 0.16550514 0.027844956
0.05083085 0.12051216 0.06951639 0.07807982 0.01399062 0.06646993 0.08916195 0.011237696
0.05612366 0.19779658 0.016428765 0.027831959 0.016371023 0.02759481 0.09981849 0.039172307
0.10624253 -0.06736392 0.0775055 0.0818835 0.013579384 0.08310952 -0.20830354 0.12802905
0.18082872 0.1204575 0.095139496 0.15332364 0.01949589 0.1818331 0.015943235 -0.012552487
-0.044087324 0.6518992 -0.029328689 0.10247998 0.06556065 -0.04070011 -0.12583642 0.14103326
0.0154124005 0.0649093 0.01620061 0.05939809 0.016682206 0.06556105 0.13120967 0.14630489
0.014892194 0.035702124 0.14816502 0.07559952 0.06668568 0.09419997 0.11100713 0.015221131
0.11318743 0.1276967 -0.1169504 0.094377235 0.03358102 -0.22405748 0.14693962 0.13092718
-0.17453067 0.0875917 -0.028453298 0.20701152 0.14045285 0.17959835 0.0138639705 0.10746681
0.044145867 0.096836746 -0.06324616 0.08811897 -0.07209769 -0.016694933 -0.09538251 -0.108000964
0.10152699 0.08250168 -0.029390678 -0.06837252 -0.086600274 -0.04625213 -0.11416915 -0.054437205
0.10467662 -0.05420941 0.062931195 0.06524286 0.078685775 0.06424107 0.11894873 0.04557492
-0.03728442 0.08987033 -0.019762367 -0.123533934 -0.007825449 -0.01876472 -0.114286676 0.102051735
-0.09431817 -0.123193145 -0.05246891 -0.01784274 -0.1012826 0.047198758 0.028686538 0.020089313
-0.123754844 -0.0057454854 -0.0770939 0.06738658 -0.022637203 -0.033000484 -0.075798124 -0.079477444
0.06416169 -0.033403814 -0.025040805 0.02753146 0.047805294 0.06878759 -0.0024176538 0.10819471
0.059107497 -0.112563565 -0.08943045 0.10805018 0.118454844 -0.029515237 0.02362831 -0.048685238
0.05283931 0.067934096 -0.10124354 -0.012158126 -0.052208528 -0.08865003 0.0006288886 -0.06778902
0.054709926 0.006153181 0.0046559125 -0.06393364 -0.002568096 0.12067504 -0.00096681714 -0.009764671
0.08911459 0.08677754 0.09067722 -0.023749307 0.10194644 0.07689534 -0.058492735 0.11070873
-0.043932542 0.08145411 -0.04461363 -0.0018537492 -0.05382116 -0.10277811 0.120372266 -0.093146235
-0.019465387 -0.029337496 0.08178984 -0.10993251 0.065524146 -0.12227422 0.08083792 0.049040467
0.06555711 0.088949606 0.015967295 0.03745453 0.08137709 -0.1189028 -0.094197884 0.12010154
-0.10747953 -0.11374931 -0.09496902 -0.05318795 0.113421306 0.08765717 0.09271552 0.03924352
0.10513377 0.03940709 0.012775868 -0.06942831 0.067954436 0.028577447 0.06840037 0.1014463

lstm.weight_hh_l0 f4 [256, 64]
00000000: 8433 493d 5c8f a1bd 1435 acbd 30f2 e93d
00000010: 968e 9c3d a6bf 9bbd c052 f93c be75 92bd
00000020: 7895 983d 5cd7 bbbd 4846 3abd e0d0 933d
00000030: f8f3 1f3d 68c0 923c d804 a7bd 7c38 b9bd
00000040: 129b f03d 0cb2 e33d 006d 203b 00d2 f23b
00000050: b6b9 edbd 70dc bf3d ccd9 ebbd e41c aa3d
00000060: 28bf 76bd 0655 aebd 4c31 c63d b075 3bbd
00000070: fc9f 58bd 40bf 76bd 5c14 9abd 004a fdbc
00000080: ccb0 e33d 783c 9ebd 5241 c2bd e0c1 0bbd
00000090: 4466 dc3d 4e28 89bd e2eb 873d 9c1f 513d
000000a0: 6093 66bc 0871 493d 700c 433c 0e6b 953d
000000b0: ac52 5a3d 00c4 223a a884 303d 1c9d 583d
000000c0: 70b5 a0bc b864 e8bd 0074 20bc 7427 f6bd
000000d0: 6c10 5abd 3818 553d 50d3 16bd 800b edbb
000000e0: ac91 6c3d c6ef 8dbd b040 713d 1496 cabd
000000f0: 10f8 95bc 000a 28bc dc4c ed3d 0032 a5bb
00000100: 88db 723d 40a2 0f3b 50dd d03c 581b 85bc
00000110: f26f cabd 4080 e2bb a08f eabc ca91 fabd
00000120: 620c d6bd f47c 433d 9c32 4bbd 8846 4ebd
00000130: facb b8bd 7689 863d f867 2abd 28cd 143d
00000140: 08bc 1b3d f477 44bd f0a9 aebd e076 833d
00000150: 0ced acbd 004e ac39 6abe 8e3d 00bb 04bb
00000160: 2cc3 c9bd c062 3dbc a8e2 bcbc 90d0 573c
00000170: 38cf 8a3c 6412 17bd 9c11 d4bd dcd5 d2bd
00000180: 046c 273d b0b0 61bd 8e04 b53d b801 8ebd
00000190: f4b3 fbbd a4d9 44bd 8e27 fcbd 300d 98bc
000001a0: 360b c5bd 780e b6bc 845b 9ebd e60f ca3d
000001b0: e47c 163d 5858 e33c 6416 47bd 94dd 1d3d
000001c0: 7491 393d c80e c9bc 9884 1bbd def0 b2bd
000001d0: ae21 eebd d0f8 edbd 5a6a 92bd bcd8 e13d
000001e0: 76a7 b6bd 1832 64bd 4406 bb3d 3835 eb3d
000001f0: 94a5 7fbd 149b 373d 82ae e7bd 2c22 113d
00000200: a01a fdbd cebe c1bd 14a7 193d 08ae ad3c
00000210: 0e9f ca3d 04a7 61bd a876 353d d037 f33c
00000220: 82c3 d8bd 80ff 213c b4cc a83d 646a 3cbd
00000230: 60d1 13bd 804a 27bc b440 22bd be1e bdbd
00000240: c085 623b f0f6 8dbc acf8 1f3d 5057 343d
00000250: a06f cabc 5422 eb3d 00ff 5e3b acec 7cbd
00000260: 5069 fcbd b09e 65bc 34d2 00bd 60ef f63d
00000270: 9499 b33d d455 8c3d 5668 e9bd 3818 813c
00000280: 9a89 eb3d 3c1c 5fbd 7642 ae3d d63c c1bd
00000290: 2059 e93d f036 99bd 3462 e2bd 98bb af3c
000002a0: 880b a6bd 3c27 78bd 8079 263c 607b b4bb
000002b0: 3c82 703d e251 f3bd 207d 3b3c c05b e8bb
000002c0: 802e 473d 3086 dbbc 4458 e93d 1638 9f3d
000002d0: f8ee d93d c630 cf3d 18ca 563d d8f2 53bd
000002e0: c8b4 71bd 9006 ce3d b056 333c 0823 893c
000002f0: 8c0f e7bd 086e d4bd b46e 13bd 7062 99bc
00000300: 00e9 043b d8ad 353d d4a9 0abd 386e 8b3d
00000310: 6414 1ebd 4082 f53c 6cc0 803d 48fc de3c
00000320: a053 e13c 0824 f1bd c0ec 38bd d8fb 9ebd
00000330: 22eb a63d b8c6 5c3d 10ed 45bd 66cf 8b3d
00000340: 4a26 943d c83a cb3d c070 1dbc 1229 80bd
00000350: 84cc e53d ac7d 993d cc1f 8f3d 3025 aa3d
00000360: 54fb a0bd 5043 a3bc e0bb bb3d 4802 263d
00000370: 36cd e93d f049 b93d 5895 3bbd 1602 cfbd
00000380: 125a 8a3d 2a1e 87bd 4060 f73b f271 993d
00000390: f8da 20bd 3658 fdbd 8e93 86bd d251 b2bd
000003a0: 30cc 57bd 006c 03ba a00c 04bc 1025 f8bc
000003b0: cc73 34bd d05e f03c f0f2 31bd 407b bbbc
000003c0: 981b 72bd b46a 713d 5c33 93bd dc68 b6bd
000003d0: 5ca9 d73d c0a6 c03d 88bb 36bd 0473 2bbd
000003e0: 9e0f 9d3d f2f8 8dbd 2a7f d83d 2ede acbd
000003f0: 4019 1e3d 2c80 b33d b0d3 c8bd 2a46 bc3d
0.049121395 -0.07888672 -0.08408561 0.11423147 0.076443836 -0.076049134 0.030434966 -0.07151364
0.07450384 -0.09171936 -0.04547718 0.07217574 0.039051026 0.017914012 -0.08155221 -0.09043977
0.11748327 0.11117944 0.0024479032 0.007410288 -0.11607687 0.09368217 -0.11516151 0.08306292
-0.060240895 -0.08512311 0.096773714 -0.045766532 -0.052886948 -0.060240984 -0.075234145 -0.030919075
0.11117706 -0.07726377 -0.09485115 -0.03412044 0.10761693 -0.06697141 0.06636788 0.051055536
-0.014073223 0.04918006 0.011904821 0.0729581 0.0533015 0.0006209016 0.04309526 0.052884206
-0.019617766 -0.113473356 -0.009793282 -0.12019244 -0.053238317 0.05202505 -0.036822617 -0.007234037
0.05775611 -0.06930499 0.05889958 -0.098919064 -0.018306762 -0.01025629 0.115869254 -0.005041361
0.059291393 0.0021916777 0.025496155 -0.01624839 -0.09884633 -0.0069122612 -0.028632939 -0.12234838
-0.104515806 0.047726586 -0.04960881 -0.050360233 -0.090232804 0.06569187 -0.04160306 0.036328465
0.038021117 -0.04796596 -0.08528507 0.06419158 -0.084436506 0.0003286451 0.06969912 -0.0020253062
-0.09851679 -0.011559188 -0.023057297 0.013172284 0.016944513 -0.036882773 -0.10354921 -0.10294697
0.040874496 -0.055100143 0.08838759 -0.069339216 -0.12290183 -0.04805912 -0.12312232 -0.018560976
-0.09621279 -0.022223696 -0.07732299 0.09866314 0.0367402 0.027752087 -0.048605338 0.03854139
0.04530473 -0.024543181 -0.037968248 -0.08737348 -0.11627518 -0.11619723 -0.07149191 0.11027667
-0.089186594 -0.055711836 0.091320544 0.1148476 -0.062413767 0.04482563 -0.113125816 0.03543298
-0.12358594 -0.09460221 0.037512854 0.021201149 0.098936185 -0.05509092 0.044302613 0.0296897
-0.10584165 0.009887576 0.08242169 -0.0459999 -0.036088347 -0.010210633 -0.039612487 -0.09234379
0.0034564584 -0.017329663 0.03905551 0.04402858 -0.02471143 0.11481157 0.0034026504 -0.061749145
-0.12324774 -0.014014885 -0.031450465 0.12057376 0.08769527 0.06852308 -0.113968536 0.015758619
0.11500855 -0.054470286 0.0850877 -0.09435432 0.11393952 -0.074811816 -0.11053887 0.021451756
-0.08107668 -0.06058429 0.010160804 -0.0055078715 0.05871795 -0.11880852 0.011443406 -0.0070910156
0.04862833 -0.026797384 0.113937885 0.077743694 0.10641283 0.10116725 0.052438825 -0.051745266
-0.059010297 0.100598454 0.010945961 0.016740337 -0.11282262 -0.10372549 -0.035994247 -0.018723696
0.002028048 0.044355243 -0.033853367 0.06808132 -0.038593665 0.029969335 0.062867016 0.027219906
0.027505696 -0.117744505 -0.045147657 -0.07762879 0.08150317 0.05390045 -0.048321784 0.068266675
0.072338656 0.09923321 -0.009609401 -0.062578335 0.11220649 0.07494673 0.06988487 0.08307874
-0.07860437 -0.019929558 0.09166694 0.04052952 0.11416094 0.090473056 -0.045796722 -0.1010782
0.06755461 -0.0659755 0.0075493157 0.074924365 -0.039271325 -0.123703405 -0.065711126 -0.08707012
-0.052684963 -0.00050133467 -0.008059651 -0.03029111 -0.044055745 0.029342085 -0.043444574 -0.022885919
-0.059108347 0.05893965 -0.071875304 -0.08906719 0.105303496 0.09406805 -0.044612437 -0.041857734
0.07668994 -0.06932248 0.105711296 -0.08440815 0.0385983 0.08764681 -0.09806001 0.0919307

lstm.bias_ih_l0 f4 [256]
00000000: c292 113e 006b fabc e92f 773c e49b 0bbb
00000010: 010f 473e e8ea 283e f9ca 593e 0249 203e
00000020: 04f4 9f3d c1da cd3d 6b2a a9bd a37a 673b
00000030: 47d0 af3d 7ab6 133e c872 f33d 0cb3 e33d
00000040: fd47 f73c 8ceb 2c3d b3b7 803a dff3 aabd
00000050: 76e4 1bbd ff99 3cbd 60d0 4e3e e6b1 86bc
00000060: 4ff9 e9bc c85a 70bc 3e7b 313e 48fa c13d
00000070: e34f 203e 4343 5d3d 8fa8 2c3e 7363 dfbc
00000080: 3ff4 e4bc be06 173e 5cfe 333e bd07 11bc
00000090: 094b 4abd 4150 26bc 24e3 c73c 52b9 9d3d
000000a0: 7a31 153e 3095 413e 271e 923d 08c0 5c3d
000000b0: 2d42 3d3f d934 0d3e 7bd7 61bc 2b2a f33d
000000c0: cbea a03d 9bad a23c 9e33 7d3d db66 203e
000000d0: c48d 0a3e e8eb 3abd 38ef 773d e5cc 22bd
000000e0: b72a 1a3e 5930 173d 7d70 7cbe 484c 9ebc
000000f0: 4f19 213e 30fc ca3d 40b3 e33d 3f06 253e
00000100: 203f 853c ec55 dd3d 98f8 bc3c 1299 d1bd
00000110: e84a 38bd e082 c9bc 4e92 f63d 405d 7bbd
00000120: 9074 8a3d d62d f1bd f81c b03c 022e ba3d
00000130: 40dc 40bb 0010 f6b8 4402 f7bd 10e0 bcbc
00000140: 34e3 ea3d c6ac a0bd 606b e43d cecf e93d
00000150: 2c53 133d 66b4 e7bd 0c05 f63d 601f ff3c
00000160: a06c a7bb 44f5 013d 18e2 dcbc f25f cf3d
00000170: 4e32 ec3d b0cc d4bc a8cd bcbd f037 86bc
00000180: c441 7ebd e0a2 9cbd 500f acbd 1aed dc3d
00000190: 8c8d 8b3d 6ae1 dbbd 207e 003c 44d5 79bd
000001a0: c4c4 593d 6801 763d 6005 e5bc 3619 9ebd
000001b0: 1018 ec3c 80d9 d03d dc6c 9d3d eab4 913d
000001c0: defa c73d dc0d dcbd e043 793c 9a4b bfbd
000001d0: f296 d3bd dc50 f23d 1e5e babd c8c2 fabd
000001e0: 62e0 fc3d 7ea5 9bbd c26d fd3d 921c e6bd
000001f0: c083 7dbb 1cf5 e2bd eecc c83d 884f 75bd
00000200: fd76 9b3b 96e8 9dbc b546 4b3d 4f65 1a3e
00000210: 8825 60be b4b6 e33d 9242 39be 35eb 2b3e
00000220: ed43 6cbd a241 28be fca6 303d d304 923d
00000230: 62fd 0b3e 3566 21be 5064 ffbd 6d6c 7ebd
00000240: 6cb6 3f3e 6141 9b3d a493 fdbd 4444 503d
00000250: 2844 a93d 96af d5bc b68e a33b 7267 8ebd
00000260: f119 79bb 174f 0f3d c24b 933d b1f2 77bd
00000270: ef52 33be 185b 0f3d 5646 3e3d 6e86 19be
00000280: 158a 11be 104d 14be bd55 c33d c4a8 f1bd
00000290: 4096 a23d 47d5 00be f374 153c d63f d0bc
000002a0: fe87 1c3e 7c45 fe3d 25e6 16be 451a 163e
000002b0: 4330 cdbd dc04 e73c 6812 e43d 3c54 8abc
000002c0: 061b 00be f9ed b2bc 931a cabd 1f9c c43d
000002d0: e643 1abd 383f 20be 28f3 92bd 8ffa 623b
000002e0: 3ba4 9f3c bc27 cfbc 3f9e e03d 44ff 793d
000002f0: 5553 dbbd 05ef dbba 1a7f 993d 4f36 7dbd
00000300: 294f 253e a0b1 cc3d bdfc 863d d72c 383e
00000310: f2ab e63d 9f33 7b3d 06f8 2c3e 57a3 90bb
00000320: 4d65 743d a286 c73d 4ee8 16be bc3a 95bd
00000330: 1221 ec3d e10d 083e aeef 633e d236 55bd
00000340: f927 a9bb 8737 18bc d2f1 9b3d 3abe c63d
00000350: e8c3 e0bc e1e2 ac3c 04be eb3d 5b7e 063d
00000360: 2f89 263e 2d12 4b3e 1836 333e f18e 0d3e
00000370: 5f6f 293d 32f5 b43d ad03 cf3c 27a5 dd3d
00000380: 037a cd3d 34fb d83c 047a 053e ded4 38bd
00000390: a3ac c53d 1f1e 293e 7325 c8bc 6236 8d3d
000003a0: b819 8e3d bc6e ba3d 0e6b 3fbb aea1 8f3d
000003b0: 178b e43d 852b 213e 315f 88ba 92b9 f1bb
000003c0: c069 193e 39a5 4c3e 2547 383d f2e2 dc3c
000003d0: 7502 b23d 71a5 203c baa8 2fbd 2a32 63bd
000003e0: 97e0 643d 28ad 633d 0406 353c e453 ec3d
000003f0: aef8 903d 1fc6 5b3d 9d92 163e 8de4 cd3d
0.1421614 -0.0305686 0.015087106 -0.0021302635 0.19439317 0.1649586 0.21268834 0.1565285
0.07810214 0.100514896 -0.08260044 0.00353209 0.085846476 0.14425078 0.11887127 0.11118135
0.030185694 0.042216823 0.0009820372 -0.08347296 -0.038059674 -0.0460453 0.20196676 -0.01644225
-0.028561262 -0.014670081 0.1733217 0.094715655 0.15655474 0.054019224 0.16861175 -0.0272691
-0.027948497 0.14748666 0.17577499 -0.008851943 -0.049387965 -0.01015097 0.024400301 0.07701363
0.14569655 0.18904567 0.07134657 0.053894073 0.739291 0.13789691 -0.013784285 0.11873277
0.07857283 0.019858172 0.061816804 0.15664236 0.13530642 -0.045635134 0.06053087 -0.039746184
0.15055357 0.036911342 -0.24652286 -0.019323483 0.1573231 0.09911382 0.111181736 0.16115664
0.016265452 0.10807404 0.023067757 -0.10234274 -0.04499331 -0.024598539 0.12039624 -0.061368227
0.06760514 -0.11776321 0.021498188 0.090908065 -0.0029428154 -0.00011733174 -0.12060979 -0.02305606
0.11469117 -0.07845454 0.11153293 0.11416589 0.03596799 -0.11313705 0.12012681 0.03114289
-0.0051093847 0.031728044 -0.026963279 0.10125722 0.11533032 -0.025976509 -0.09218913 -0.016384095
-0.062074438 -0.076482534 -0.08401358 0.10787411 0.06814107 -0.10736354 0.007842571 -0.0609944
0.053166166 0.060059935 -0.027956665 -0.07719652 0.028820068 0.10197735 0.07686779 0.07114585
0.09764646 -0.10744831 0.015213937 -0.09340592 -0.10331525 0.11831829 -0.09099983 -0.12244183
0.12347485 -0.075999245 0.1237445 -0.11235918 -0.0038683265 -0.11081907 0.09804712 -0.0598903
0.004744409 -0.019275945 0.04962798 0.15077709 -0.21889317 0.11118832 -0.18091801 0.16788943
-0.057681967 -0.16431287 0.043128 0.071298264 0.13670877 -0.15761645 -0.12470305 -0.06211512
0.18721932 0.075808294 -0.12381676 0.050846353 0.08264953 -0.026084702 0.0049913777 -0.069533244
-0.0038009847 0.034987535 0.07192184 -0.060534183 -0.17512105 0.034998983 0.046453796 -0.14992687
-0.1421283 -0.14482522 0.09537838 -0.117997676 0.07938814 -0.12581359 0.009122121 -0.025421064
0.15286252 0.12415597 -0.1473623 0.14658459 -0.10018971 0.02820056 0.11136323 -0.01688587
-0.12510309 -0.02184199 -0.0986835 0.0960009 -0.03766241 -0.15649116 -0.071752846 0.0034634208
0.01948749 -0.025287502 0.10967683 0.061034456 -0.10709254 -0.0016779607 0.07494946 -0.06181937
0.16143478 0.09994817 0.06591175 0.17985855 0.11263265 0.061328527 0.16891488 -0.004414003
0.05966692 0.09742476 -0.14737055 -0.07286593 0.11529745 0.13286544 0.222594 -0.052054234
-0.005162236 -0.0092905825 0.07614483 0.097042516 -0.027437165 0.021104278 0.11510852 0.032835346
0.16263269 0.19831152 0.17501104 0.13824059 0.041365977 0.0883583 0.025270307 0.10822516
0.100330375 0.02648697 0.13034827 -0.04512488 0.096520685 0.16515397 -0.02443192 0.06895138
0.06938499 0.09103152 -0.0029208097 0.0701326 0.11159342 0.15739258 -0.0010404346 -0.007376858
0.14981747 0.19984902 0.044989724 0.026963685 0.08691875 0.009805069 -0.04288552 -0.055467762
0.055878248 0.055585057 0.0110487975 0.11539438 0.07078682 0.05365574 0.14704366 0.10053358

lstm.bias_hh_l0 f4 [256]
00000000: 2788 603c f095 543e 2478 133e 7c2e ae3d
00000010: 8514 c13e 5ab2 593e 22f8 5d3d b263 5e3e
00000020: 1882 3e3d 7171 dcbd 619d a2bd c82d a33d
00000030: 5a57 813d 0a3a 073e 9677 443e 1a25 863c
00000040: c16d b03d a638 013d 2b2e db3d 611b 8cbd
00000050: 44f3 133e edf7 22bd 9716 053e 3715 f63d
00000060: 58e2 96bd 17f0 183e 5886 2b3e f5f3 bb3b
00000070: 1481 3e3e 3a23 083e db37 f23d bc08 79ba
00000080: 0dd9 dc3d b397 ce3d 326c f1bc 967a 493e
00000090: 8732 15be 3241 403d 8561 1c3d da36 56bc
000000a0: 81b3 0fbd c20f 613d 6b09 8d3c b8be 3fbd
000000b0: 94e1 313f 2184 3e3e 38b9 07be cc3d dcbc
000000c0: cc20 203e ca9e 083e aee3 133e 6dd7 02bd
000000d0: e782 b03d 1ed7 2d3e d459 9b3d 3ff3 13be
000000e0: c46b 1eba a328 933b a168 3cbe fc6e f73c
000000f0: cd20 423e bc93 353e 26ab 0f3e 9080 dbbc
00000100: 0072 dabc e891 d7bc c2b2 eabd 38d9 82bd
00000110: 9445 01bd 5871 da3d 589d 1cbd 1054 75bc
00000120: eca2 51bd b092 26bc 600a dfbc ccb9 813d
00000130: 4859 30bd a80c d43c 168d cfbd 6642 a8bd
00000140: 8cd9 dcbd eab3 ecbd 2e5c 883d d4c8 953d
00000150: fcb7 8b3d 54ac 353d d0d0 453c 2856 c83d
00000160: ec29 743d 7898 aebd e013 8bbb 1015 a93c
00000170: 6082 8cbd 2a52 b7bd 1478 6e3d a0ef 6bbd
00000180: 70bd bebd 2cf1 6fbd 509c 3a3d 0016 8fbc
00000190: 1097 5cbc 4067 1abc 2e31 f1bd 4837 a3bc
000001a0: c043 3f3d b691 d7bd e472 f93d 50ca f2bc
000001b0: 10d3 a1bd 808d 003d 485c a73c 8efc 9f3d
000001c0: 7a4b 8ebd f0c5 423c 38d2 87bd 68c7 453d
000001d0: 56b2 febd d004 c73c c00e f43d 1a17 94bd
000001e0: 9c67 763d 340b 64bd f68f b5bd 7227 f3bd
000001f0: a017 a63d 4c49 b6bd 74c6 d83d 68cf 9dbd
00000200: 2516 783b d505 b2bc fb70 4d3e f51b dd3c
00000210: fef7 10be 0b20 863d a1b8 4ebe bdde 043c
00000220: 00d6 f03d 04e8 dbbb c709 2b3c ea76 443e
00000230: 63b6 1a3e a429 23bd ed02 e2bd fa80 4dbe
00000240: aca0 253e efb7 033d dc6d e0bd 9e46 33be
00000250: e2f0 56bc 968e 2a3c 0d70 243b 38f3 06bd
00000260: 20d8 3bbe d911 5cbd 0b12 263e 3dea 31be
00000270: feb8 39be 6fc2 e8bd c66a 653d 671d e1bd
00000280: ba28 17be 1cc9 35be e0c3 103e 97c1 1dbe
00000290: 6091 d93d 1ef8 c0bd b24d 2dbe 8259 21be
000002a0: 73de 433c 5c22 a03c e056 50bd 36d1 c93c
000002b0: 3931 d2bd 8840 c63d 8022 aa3d af31 cdbd
000002c0: 553c 423d 60e7 dcbd f8a3 eb3c 078f 3abd
000002d0: 8748 0d3e 22ec 2ebd 7607 2c3c a4f0 6439
000002e0: 75a3 41be 7dc6 58be 656d 85bd 6dd9 b53d
000002f0: 55ba a23c 2c76 2dbe 4afe fa3d 1d98 be39
00000300: 621d 4f3e b680 ef3d e375 973d 5c40 a53c
00000310: f1fb 0e3e 76a7 403e bafe 53bc d03d 2a3e
00000320: e1e7 e33d e222 873d 9fa0 8d3a 2600 9b3d
00000330: e415 2a3e 5863 003e 1ca4 b83d d792 583c
00000340: b630 d73d fd50 1e3e 3838 313d 6e57 ae3d
00000350: 83f2 393e 3708 3e3d fd94 673d 0179 56ba
00000360: 4fba 7abc 9208 963c f066 353e dff6 3e3e
00000370: d0e5 bf3b 96b4 8b3e a63b 923b a34e a93d
00000380: 5f18 163d 9054 423e 3ce5 3c3e d4d6 b7bc
00000390: 610e d2bd cf8e 123e d3e6 993c 7ea2 9d3d
000003a0: 7c45 883d da6c 06bd 3396 503e 00b4 8b3d
000003b0: ab2f 763e deaf 7a3e 7518 153d 83c6 c0ba
000003c0: b9fe bbbc f095 4f3d c3d4 3f3e 6e14 6e3c
000003d0: 75fa 1c3d a85f 3c3d b381 62bd 125d f03c
000003e0: 3984 f83d 32c3 0b3d 63ae f4bd 6450 c63d
000003f0: 6ed7 f73d 9d70 313d 02cf f43c bf03 443e
0.013704336 0.20760322 0.14401299 0.0850496 0.37710968 0.21259442 0.054191716 0.21717718
0.046510786 -0.10763825 -0.07940174 0.079677165 0.06315489 0.13205734 0.19186243 0.016375113
0.08614684 0.031548165 0.10702165 -0.068411596 0.14448267 -0.03978722 0.12996899 0.12015765
-0.073673904 0.14935337 0.16750467 0.005735869 0.18603927 0.13294688 0.1182706 -0.0009499898
0.10783587 0.10087528 -0.029470537 0.19675669 -0.14570056 0.046937175 0.03817894 -0.013074601
-0.035083298 0.05494667 0.017216405 -0.046812743 0.6948483 0.1860509 -0.13254249 -0.026884936
0.15637511 0.13341823 0.14442322 -0.031943727 0.08618718 0.16976592 0.07585493 -0.1444826
-0.000604328 0.0044909283 -0.18399288 0.030204289 0.18957825 0.17732137 0.14030132 -0.026794702
-0.026665688 -0.02631469 -0.114598766 -0.063890874 -0.031560495 0.1066615 -0.038235992 -0.014973655
-0.051180765 -0.010166809 -0.027226627 0.06334266 -0.043053895 0.025884941 -0.10134332 -0.082157895
-0.10783681 -0.115577534 0.06658207 0.073136955 0.068222016 0.044353798 0.012073711 0.09782058
0.059610292 -0.08525175 -0.0042443126 0.020639926 -0.068608046 -0.089512184 0.058219984 -0.05760157
-0.09313476 -0.05857961 0.045559227 -0.017466545 -0.0134637505 -0.009424031 -0.117769584 -0.019923821
0.04669547 -0.10525839 0.12180117 -0.029637486 -0.07901585 0.031384945 0.020429745 0.07811843
-0.0694799 0.011888012 -0.06631893 0.04828587 -0.12436359 0.024294287 0.11916876 -0.07230969
0.060157403 -0.055674747 -0.08865349 -0.11872758 0.08109975 -0.08900699 0.10584727 -0.07705575
0.0037854996 -0.021731297 0.2006263 0.02699087 -0.14157102 0.065490805 -0.20187618 0.008109746
0.11759567 -0.006711008 0.010439343 0.19185987 0.15108638 -0.039834633 -0.11035714 -0.20068732
0.16174573 0.032157835 -0.10958454 -0.17507407 -0.013118954 0.010409972 0.0025091202 -0.032946795
-0.18344164 -0.05372796 0.1621782 -0.17374511 -0.18136975 -0.1136521 0.05601003 -0.10991936
-0.1476163 -0.17752498 0.1413722 -0.1540588 0.10623431 -0.094223246 -0.1692417 -0.15756801
0.0119548915 0.019547634 -0.0508641 0.024635892 -0.10263295 0.09680277 0.083073616 -0.10019242
0.04742082 -0.10786319 0.02876471 -0.045546558 0.13797198 -0.042705663 0.010499826 0.0002183342
-0.1891001 -0.21169467 -0.06515006 0.08879361 0.01986424 -0.1693961 0.12255533 0.00036352957
0.20226052 0.116944715 0.07395532 0.02017229 0.13963296 0.18813881 -0.0129391495 0.16625142
0.11128212 0.0659845 0.0010805315 0.07568388 0.16609913 0.12537897 0.090156764 0.013218603
0.10507338 0.15460582 0.043266505 0.0851277 0.18158917 0.046394553 0.05653857 -0.0008181483
-0.0153032085 0.018314634 0.17715049 0.18648861 0.005856253 0.27286214 0.004462677 0.08266952
0.036644336 0.1897757 0.18446821 -0.022441305 -0.10256649 0.1431229 0.018786823 0.076970086
0.06653878 -0.032818653 0.20369796 0.06821442 0.24041621 0.2448115 0.036400277 -0.0014707599
-0.02294861 0.0506801 0.18733506 0.014531238 0.038324792 0.045989662 -0.055299472 0.029341254
0.121345945 0.0341217 -0.11947324 0.09683302 0.12101637 0.043320287 0.029883865 0.19142054

lstm.weight_ih_l1 f4 [256, 64]
00000000: 2f95 2a3d c992 28bd f555 103c 58d4 133e
00000010: e0dc 72be c8a8 5f3e ab0c 4cbe a8ae 103e
00000020: a5a9 453e 1e72 f7bc 8900 ddbc 2257 553d
00000030: f865 1b3e 08bd 65bc ab64 26be f3ea 9ebd
00000040: 8503 3d3e 8e74 c63d 3027 5bbe ab53 21be
00000050: 289c 853d 34e6 3c3e 18cd 463e f006 03be
00000060: baa3 b5bd d3c9 9cbd bb1f 513e 8648 cbbd
00000070: 6a0e 24be 9ef9 41be 454c 6f3c eb89 263b
00000080: 5640 e1bd c8e6 eebd 18bc cf3d 12cc 20bd
00000090: d25c adbc 14c6 2ebe 3347 f8bc 95c9 93bd
000000a0: 8bfe d43d e3b7 4c3d e732 73be b56b f03d
000000b0: 0fb2 0d3f 02cb 803e d9e1 0f3e f0bb 06be
000000c0: 7f01 943c 9a3f cabd e2cd d3bd db89 1ebd
000000d0: 1ec6 ec3d b286 32bd d685 fdbd 9dbf 12be
000000e0: e488 0fbe cf8f d8bd 783b 4e3e 9263 3e3e
000000f0: 607b 9dbd 664a 33be 1d3d 0d3e d65f 52bd
00000100: 55da bbbd 607c 133d 231e 453d f850 ac3d
00000110: 59db 76be 93e4 653e 206c b3bc 7ac2 9b3d
00000120: d3ef 593e de44 f13b a305 50bd 17d6 5dbc
00000130: e978 c53d a35a 11bb 3413 6ebd 0703 45be
00000140: b355 f53d a52a 833c 5a50 28be 5361 f23a
00000150: 0602 293e 41b3 0c3d 9650 05bd b3e7 5abe
00000160: ce68 243d 22dc c7bd 8f24 183d 81ac 82bd
00000170: c0e4 a8bd 34d7 19bd 2bc4 1b3e a6db 20be
00000180: b456 1dbd 4fb1 4abd cfcf 443e d7c0 a6bd
00000190: 52e3 863d b479 7e3d ede4 9ebd cf48 e5bd
000001a0: b4e6 8f3c a636 263e c3b8 5ebe b3ce 1dbd
000001b0: c970 273f 55b1 733e 223e 70bd 8a91 01be
000001c0: 3690 85bd 7926 82bd c9d3 46be 6b39 1f3e
000001d0: 1d48 4e3c dc50 3dbc f476 30be 860a 9dbd
000001e0: 5eaf e4bd 933c e3bd fcf9 4fbd dd9a 4b3e
000001f0: 73ad f9bd 1f0d 5cbe 4389 1d3e 268e 3dbd
00000200: d6f2 ebbd 6677 e3bd d631 063e 8c7d 3c3e
00000210: cb0e 73be 82eb 343e 7bc7 3fbe edf7 343e
00000220: 77d5 0e3e 0e00 56be 7399 c03c 33dc da3d
00000230: 6dfa e4bc 9f58 7b3d 174e 3dbe 395c c33c
00000240: d292 273e cbf5 6ebd 5207 68bd 1f31 003e
00000250: 1bf2 cb3d 2241 153d 6ac7 f83d be57 10be
00000260: 542f bdbd 1c32 46be 4b97 9d3c fada cdbd
00000270: d3f5 fcbc 8601 9b3c f08a f73c 7195 9c3d
00000280: 87a0 c23c 450c cfbd afc3 203e 400e 4fbd
00000290: c0a5 50bd 1d84 d9bc eba4 2fbe 7785 58be
000002a0: 3b02 0b3c 6d00 443e 50fb 59bd f866 b43c
000002b0: 508d 3e3f d94d b23d 788d 4a3d f840 3bbe
000002c0: 6c93 743d 4a6c 58bd 05a9 a5bd 62e1 a1bd
000002d0: 0727 1e3e ec73 b9bd 19cc 383d 66c7 2c3d
000002e0: 3ef0 453c fea6 17be 3874 513d 69ba bb3d
000002f0: e0ba cfbd 0724 2fbe 78d2 793d 366c bebc
00000300: 118a 29be dc20 d7bd eeeb 5b3b 43ea 773e
00000310: 834c 91be 8272 b33d 39ef 6abe 3b28 3c3d
00000320: 14f7 cf3d 7801 17be 71a1 693c 8d2f 7d3d
00000330: 1e2d 5b3e 9b7b f7bd 7b3e 13bd e549 23bd
00000340: 5f70 473e 74fd 8c3d 0bac 44be 5a6c 07bd
00000350: 251e 1d3e 7683 003e 5a5a 2fbc 72a2 2fbd
00000360: 983e a9bd 1961 eebd 3e19 293e 5d34 f5bd
00000370: f634 43be 3ee9 27be 3d9e aebc e8c7 48be
00000380: 0a9f 38be 33d6 28be a174 343e 2d3c 81bd
00000390: 0d0e a83d 46f5 35be 4a30 a6bc beec 03bd
000003a0: 24f7 9a3d 6a4d 173e 669e 6ebe 3d8f 09bd
000003b0: dab4 183f fcd9 3d3d 9ee3 00bd 099a bfbd
000003c0: 5d4a f0bc 5d42 05be a2fe 2dbe 939b d2bc
000003d0: 4af5 17bd b759 2b3c d24d 28be 659d acbd
000003e0: 83c3 a1bd 2206 0fbe 2176 853c d128 2d3e
000003f0: 72e4 7bbe 65da e2bd defb 1f3e 733a 04be
0.04164618 -0.04115561 0.008809556 0.14436471 -0.2371707 0.21841729 -0.19926707 0.14129126
0.19302996 -0.030205783 -0.026977794 0.05208505 0.15175617 -0.014022119 -0.1624934 -0.07759657
0.18458374 0.096902 -0.21401668 -0.15754573 0.06523925 0.1844719 0.19414175 -0.12795615
-0.08869119 -0.076556824 0.2042226 -0.09925942 -0.16021124 -0.18942878 0.014605586 0.0025411795
-0.10998599 -0.11665112 0.10143298 -0.039257117 -0.021162424 -0.17067748 -0.030307388 -0.07216183
0.10400113 0.049980056 -0.23749886 0.117392935 0.5534982 0.25154883 0.14050998 -0.1315763
0.01806712 -0.09875412 -0.103420034 -0.038705688 0.11561225 -0.043585487 -0.12379043 -0.14330907
-0.14017063 -0.10574304 0.20139873 0.1859267 -0.076895475 -0.1750885 0.13792844 -0.051360928
-0.09172503 0.036007285 0.048124444 0.08413881 -0.24107112 0.22450475 -0.021902144 0.07605453
0.21282892 0.007362946 -0.050786626 -0.0135398125 0.096422024 -0.0022179268 -0.058123782 -0.19239436
0.119792365 0.016011545 -0.16436902 0.001849214 0.16504678 0.034350637 -0.032547556 -0.21377449
0.040139012 -0.09758784 0.03714424 -0.06380559 -0.082467556 -0.03755875 0.15211551 -0.15708789
-0.038412765 -0.0494855 0.19219898 -0.0814225 0.06586327 0.062127784 -0.07758508 -0.11195528
0.017566063 0.16231784 -0.21750169 -0.0385272 0.6540647 0.23798116 -0.058653004 -0.12653175
-0.06521647 -0.06354994 -0.19416727 0.15549247 0.012590435 -0.011554923 -0.17232877 -0.07668023
-0.11166261 -0.11095538 -0.050775513 0.19883294 -0.12191286 -0.2148938 0.15384392 -0.04627814
-0.11520927 -0.11106758 0.13104948 0.18407267 -0.23736112 0.17667964 -0.1872844 0.17672701
0.13948618 -0.20898458 0.02351067 0.10686531 -0.027951444 0.061363813 -0.1848682 0.023847686
0.16364601 -0.058339875 -0.056647606 0.12518738 0.09958287 0.03643907 0.1214741 -0.14095971
-0.09237543 -0.19355053 0.019237181 -0.10051532 -0.030878937 0.018921625 0.030217618 0.07645691
0.023758186 -0.10109762 0.15699647 -0.0505507 -0.05093932 -0.026552254 -0.17152755 -0.21144663
0.0084844185 0.19140787 -0.053218186 0.022021756 0.74434376 0.087062545 0.04945132 -0.18286502
0.059710905 -0.052837647 -0.080888785 -0.079043165 0.15444575 -0.090553135 0.045116518 0.04218235
0.012081204 -0.14809796 0.051136225 0.09166414 -0.101430655 -0.17103587 0.060991734 -0.023244958
-0.16556574 -0.10504314 0.0033557373 0.24210458 -0.28378686 0.08762075 -0.22942819 0.045936804
0.10154548 -0.14746654 0.014259682 0.061812926 0.2140393 -0.12084123 -0.035948258 -0.039865393
0.1947646 0.0688428 -0.19206254 -0.033062316 0.1534353 0.12550148 -0.010702694 -0.04287953
-0.08263892 -0.11639614 0.16513535 -0.11972878 -0.19063172 -0.16397569 -0.021315688 -0.19607508
-0.18029419 -0.1648796 0.17622615 -0.06310306 0.08205805 -0.17769346 -0.020286698 -0.032208197
0.075666696 0.14775625 -0.23302612 -0.03358387 0.5965096 0.046350464 -0.031467073 -0.09355552
-0.029332334 -0.13013597 -0.16991666 -0.02570895 -0.03709916 0.010458401 -0.16435936 -0.08428458
-0.07898619 -0.13967183 0.01629168 0.16910101 -0.24598864 -0.11076812 0.15623423 -0.12912922

lstm.weight_hh_l1 f4 [256, 64]
00000000: 005a 633d 94b7 583d 141f fcbd 4028 c83d
00000010: 204f c4bb 5255 ef3d 6a95 f23d 44f7 053d
00000020: 74dd 2b3d c895 f93c a0a3 813c 2081 76bd
00000030: 2487 b33d 0291 873d 28a0 9fbd 9c65 87bd
00000040: 0860 57bd ca43 e53d 007e d439 4447 c3bd
00000050: 64d1 09bd e0c3 0abd aa96 e2bd 047a f3bd
00000060: c833 043d aafd e7bd 54fb a7bd f429 f03d
00000070: f8fd 85bc f074 ee3d 6232 d43d 10d1 6e3d
00000080: 0063 4fba f01c e43d 0017 8d3c 72de aabd
00000090: 8c96 68bd ec5e 08bd 6087 72bd 98a2 693d
000000a0: d8bd bbbc c061 3bbb 62bf bf3d b695 f43d
000000b0: 00bf 70bc cc19 a93d 8039 89bb 126c d23d
000000c0: 9c3c 37bd e0d4 f73d 10d1 b83c c6e7 e43d
000000d0: 9802 af3c 1ca2 cabd ace1 15bd 4a7b cf3d
000000e0: a031 38bc 50d6 bbbd 66a4 f6bd e4a7 68bd
000000f0: a01a 3b3d 9257 873d 261f ecbd 545c 903d
00000100: bc34 55bd ba4a e0bd 7066 963d 425b ac3d
00000110: f88e d03d 20dd 393c 981d c5bd 50b1 fd3d
00000120: a08d 373c 089f 713d ec96 73bd 003d 3aba
00000130: 0841 f33d 1677 f73d 4851 a2bc b8d0 3b3d
00000140: 8001 1ebb 86ed acbd d0d3 f7bc 1841 0b3d
00000150: 10e4 523c 0830 bbbc b853 823c 24fb 963d
00000160: c097 23bb 04bf 6d3d aaad bf3d 92fe 8dbd
00000170: 005b b3ba 76f0 f03d a0ab 48bd a82c c5bd
00000180: e81d ccbd 5810 aa3d e0c3 16bd 4eac c93d
00000190: f8e0 9b3d 70b7 b13c 1e13 903d 4a33 edbd
000001a0: 18d2 0c3d f442 dfbd 2ab5 debd e078 63bd
000001b0: a08e d63c 98d5 a6bd 7607 a5bd 54c2 643d
000001c0: 12bb c13d b005 533c a077 df3b e043 1ebc
000001d0: f067 c33c 04b1 e23d 5cf5 7ebd 943e ee3d
000001e0: 2459 943d c416 cc3d f899 a2bc b0f7 66bd
000001f0: 14b7 953d 14dd 5abd d0c2 623d 723f e53d
00000200: 0887 fcbd 0004 f9bb 08b0 2cbd 6450 283d
00000210: 849a 87bd e8cd f8bc 503f 1a3c a81f 17bd
00000220: 1272 913d 38fb ab3c d4f6 0dbd d064 bdbc
00000230: 1605 e93d a01d 39bd 68e0 c83d 4c00 5bbd
00000240: b6a1 8ebd 583d 2dbd c80c 65bd e088 41bc
00000250: ec6c 973d 7009 a53d 0a46 c5bd d671 bb3d
00000260: 0cf5 80bd 26c3 e93d 100d 0f3d c210 8abd
00000270: 86b2 a1bd cc66 d6bd a4dc d4bd 963b 963d
00000280: 60d3 903b 9c99 2f3d bed9 9bbd 640a febd
00000290: 9096 5cbd 047d 8e3d c4ef 9bbd 2a69 debd
000002a0: 70d2 dc3c 2402 7bbd 0a80 fc3d 0868 90bc
000002b0: d074 3ebc d080 6f3d d878 b7bc 88c8 99bd
000002c0: 8ef5 f8bd 18ab 743d 2063 823c 44ee e93d
000002d0: a27c f0bd 302b c23c 3428 e2bd 8c57 053d
000002e0: f035 73bd 90c1 9b3c 2486 95bd 8ca5 503d
000002f0: c497 64bd 9e56 f0bd b0f7 e6bc 20b6 89bd
00000300: 20f2 f53c dae7 ad3d a877 40bd 122e d4bd
00000310: 2c4e 7e3d aabf febd 70f0 0a3d e0ff 323c
00000320: 8003 e23b a47b 28bd 3492 f0bd 80c6 a1bc
00000330: 5c7a a13d b044 bdbd 0a65 af3d 24b3 dbbd
00000340: 840a 8abd 38f5 ecbc 2014 a6bd 7a01 acbd
00000350: 0e3c 9f3d 9e8c a93d 9851 d33c 8cc6 8ebd
00000360: c4b5 a8bd 589a aebc 2cba 65bd a07c a33d
00000370: d089 8fbc 948d a43d 56e4 ebbd f41d 563d
00000380: 9096 3c3c 1c70 303d 0ec0 f2bd b07f 3bbd
00000390: 88ed ff3d e632 ef3d b815 64bd 92cd a63d
000003a0: e06c 8dbd 0cb2 713d fa91 c4bd 60d7 92bb
000003b0: 5c15 12bd 80bf f93a 2062 b2bb 8a68 85bd
000003c0: ccd5 95bd 80cc 53bc 005a 33ba 4a9c 92bd
000003d0: 60e3 dd3c e2a9 eebd c042 533b 6463 613d
000003e0: e24d edbd 8cf3 963d d8e1 af3d 1457 36bd
000003f0: fea9 953d 66db a33d 2855 d13d 5cb5 bd3d
0.055505753 0.05290945 -0.12310615 0.09773302 -0.0059908777 0.116861954 0.11844905 0.032706514
0.04195924 0.03046693 0.015825093 -0.060181737 0.087660104 0.06619455 -0.07794219 -0.06611177
-0.052581817 0.1119457 0.00040529668 -0.09535077 -0.033646956 -0.033878207 -0.11063893 -0.11888507
0.032275945 -0.113276795 -0.08202234 0.11726752 -0.016356453 0.11643398 0.10361172 0.058304846
-0.00079111755 0.11138332 0.017222881 -0.08343209 -0.056784198 -0.03329365 -0.059211135 0.057039827
-0.022917673 -0.00285922 0.09362675 0.119426176 -0.014693975 0.082568735 -0.0041877627 0.10274519
-0.044735536 0.121011496 0.022560626 0.1117702 0.021363541 -0.09894201 -0.03659217 0.101309374
-0.0112423 -0.09171736 -0.12043075 -0.056800738 0.04567969 0.066084996 -0.115293786 0.0704886
-0.052052245 -0.10951753 0.07343757 0.084158435 0.10183519 0.011344224 -0.09624785 0.12387335
0.0112032 0.058989555 -0.059470102 -0.00071044266 0.11877638 0.12083261 -0.019814149 0.045853347
-0.002410978 -0.084437415 -0.030252367 0.033997625 0.012871757 -0.022850052 0.01590906 0.0737212
-0.0024962276 0.058043495 0.09359296 -0.06933321 -0.0013683736 0.11764614 -0.0489918 -0.09627658
-0.09966642 0.083038986 -0.036807895 0.09847318 0.07611269 0.021693915 0.07034896 -0.11582048
0.03438005 -0.10901442 -0.10874398 -0.055535197 0.026191056 -0.081462085 -0.08058064 0.05584939
0.09459509 0.012879774 0.0068196803 -0.009659737 0.023853272 0.11068919 -0.06224571 0.116330296
0.07243565 0.0996528 -0.019848809 -0.056388557 0.0731031 -0.053433493 0.05536157 0.11193742
-0.12330443 -0.007599354 -0.042160064 0.04109229 -0.066212684 -0.030371621 0.009414509 -0.036895424
0.07101835 0.020993814 -0.03465922 -0.02311936 0.11377923 -0.04519427 0.09808427 -0.05346708
-0.06964438 -0.04229483 -0.055920392 -0.011812419 0.07393822 0.08058441 -0.096324995 0.09152572
-0.06296739 0.11414175 0.034924567 -0.067414775 -0.07895379 -0.10468826 -0.10393646 0.07335584
0.004419729 0.042871103 -0.076098904 -0.124043256 -0.053854525 0.069574386 -0.07614091 -0.10859902
0.026955813 -0.06128134 0.12329109 -0.017627731 -0.01162453 0.058472455 -0.02239649 -0.075089514
-0.12156211 0.05973348 0.015916407 0.11422399 -0.11742522 0.023702234 -0.110428244 0.032554194
-0.05937761 0.019013196 -0.07300976 0.050939128 -0.055808797 -0.11735271 -0.028194278 -0.06724191
0.03002268 0.08491488 -0.046989113 -0.1036035 0.06208627 -0.12438901 0.033920705 0.010925263
0.00689739 -0.041133538 -0.11746636 -0.019747972 0.07884666 -0.09241617 0.085641935 -0.10727528
-0.06740287 -0.028925523 -0.08109307 -0.08398719 0.077751264 0.08278774 0.025795743 -0.069714636
-0.08237794 -0.021313831 -0.05608575 0.07982755 -0.017521769 0.080348164 -0.11518161 0.05227466
0.011510506 0.043075666 -0.11853038 -0.04577607 0.12496477 0.1167963 -0.055684775 0.08144678
-0.06905532 0.05900769 -0.09598155 -0.004481241 -0.0356649 0.0019054264 -0.0054438263 -0.0651408
-0.07316169 -0.012927175 -0.0006841719 -0.07158716 0.02708596 -0.11653496 0.003223583 0.055026427
-0.115871206 0.07370672 0.08587998 -0.044516638 0.07307814 0.08000831 0.102213204 0.09263107

lstm.bias_ih_l1 f4 [256]
00000000: f867 513e 0929 f43c 69b8 ecbc d7a4 b83d
00000010: df59 23bd 2cb9 fe3d 890b eebc 623c 03bd
00000020: b830 703d 0ad3 ed3c a3d7 7e3d b38b 223e
00000030: a314 103e b954 f63d 11ab 583e cd41 023e
00000040: 6898 bc3d 9d30 1d3c a5e4 1abc 5025 443c
00000050: 2112 f43d 36e3 973a 06f9 d93d f47d fc3d
00000060: 0792 cf3d 13fe ef3d 8e57 bb3d 564f 443e
00000070: 06cd bc3d bca8 fe3c 2819 4a3e c0a2 493e
00000080: 61b4 f33c 913e 32bd 0a23 a03d 3663 0e3e
00000090: f08d 2fbd 6fd5 bf3d 5936 523e fb5a df3d
000000a0: bb3e a33d 0d92 ab3d b34d 953d 0292 363c
000000b0: d698 adbd 6fa4 13bd 025b 303d 458d 183e
000000c0: 6928 bb3c 8353 3f3e 7f3c 9d3d 99e6 313e
000000d0: 9120 ad3d 8414 9a3b c6be 0bbd ef25 8b3c
000000e0: e2a7 3a3e f06a 243e d6af 553e 7d8d dc3d
000000f0: 05fa 46bc d669 4f3c ccd3 b13d 4949 083c
00000100: bce0 cabd 38f0 fabd 1ce7 e73d 4010 543b
00000110: 88be 953d eefc 853d d000 45bd 28ce 3e3d
00000120: fe96 a0bd 8e57 f8bd 64fc 713d 904a d4bc
00000130: 822d 94bd 3cd3 0d3d 988a e03d 081d f1bd
00000140: ded5 983d ee1d b8bd a4a3 d0bd 44bd 7b3d
00000150: 6498 123d b6c0 89bd e49e 3f3d dca7 45bd
00000160: 0cc9 833d e6bf db3d 9648 b8bd 0077 cf3a
00000170: 0e83 8abd 10de 47bd 2af5 abbd 7c1f a3bd
00000180: 46fb 89bd c4da 51bd 5473 3cbd 40cd a4bb
00000190: f08c d9bc 9020 eb3d e8d5 ffbd 4c1d 68bd
000001a0: f227 823d f65b 98bd d043 10bd 16c7 d4bd
000001b0: 26d1 de3d 443a 29bd 0e20 e8bd 5228 8b3d
000001c0: 6853 803c 94ca c7bd b04b 0dbc 2074 b73c
000001d0: a80a 763d 34ee 753d 5859 a83d b844 66bd
000001e0: 50ed fe3c b0b4 593c 283a c73d 101d ddbd
000001f0: 50df 693c 90e4 fd3d 803c 633b 38bb 173d
00000200: 7498 8cbc 8f62 023d fd9c 5f3d 47b9 ad3c
00000210: 1e18 283e a20a cf3d f7fa d53d ba93 da3d
00000220: 1e6d b0bc e9c6 e5bc 80ca 333e 2427 33be
00000230: 6142 3f3e 4262 0f3e a568 c3bd 47fa a23b
00000240: 24eb 213e 1677 563d c46e 31be 214c 353e
00000250: ba40 f0bd b6fa 09bc e518 22be 06e1 75bd
00000260: 15fe 153e 8b65 333c 4fa0 773d 91ee 083e
00000270: ccfe f63d 6682 573d 7892 f8bd 36e1 1b3e
00000280: 8e85 253d 8c3d 15bd 17d8 043c 6f9b 11bd
00000290: 216a cfbd 3417 adbc bf53 37be 284b babd
000002a0: 7dce b9bd f5d8 973d d7bc 013e f63d fd3c
000002b0: 83ab 65bc 6766 4dbd 7a67 c23d db00 413e
000002c0: 5556 083e 373b 0e3e ae9f 4abd d64f 2b3e
000002d0: edf5 493d 5d0b 8c3d def2 1e3c 66a6 02bc
000002e0: 4ddb 18be bb44 013e 642b 0e3c 4ade e2bd
000002f0: 52e2 36bb 384c 3ebe b7bc 88bd e3d7 32bd
00000300: f90c b63d ee4e 6cbd 21c6 893d 496b 8b3d
00000310: 47ef 3a3c 343c 6c3d ab2a 803d aaef 12bd
00000320: 91ee 3b3e 69eb 5c3e c820 423e c826 3b3e
00000330: f066 633e d72b 2e3e da89 563e 7a35 043e
00000340: d8d3 493e ebb0 d23d 9872 663d 2b6d eebc
00000350: 1f52 e93d 3e68 db3d a8e0 683d 9428 6bbc
00000360: e02a 43bc 390b bf3d e19e 033e abbc 0a3e
00000370: f504 033e 90e2 183e 4aba 2f3e 47bc 833d
00000380: a134 9e3d 230f edbc 4cb9 f53d 75d8 183d
00000390: ea7e d5bc 8423 373e 48a6 993d 696e 9a3d
000003a0: b8fe 023e 60dc 093e 344f 213e fe17 eb3d
000003b0: 3c3b 7dbd b4d1 2c3e 65c5 4c3e bced bebc
000003c0: e395 083e c03d 4d3e 9662 343d 8fb5 433e
000003d0: 4b8e 9b3d 7c82 a3bd 6848 3b3d ed47 b73d
000003e0: 2495 673d 3265 e73d e262 303e a00b 333d
000003f0: 9b31 493e 5cce 173e 9c2a e2bc 63c9 8a3d
0.20449817 0.029804723 -0.028896527 0.09015816 -0.03988063 0.124376625 -0.029058235 -0.032040007
0.05864021 0.029031295 0.062217366 0.15873604 0.14070372 0.12027878 0.21159007 0.12720414
0.09208757 0.00959411 -0.009453927 0.011971787 0.1191752 0.00115881 0.106432006 0.12328711
0.101352744 0.11718383 0.09147559 0.1917089 0.092187926 0.031086318 0.19736159 0.1969099
0.029749097 -0.0435167 0.07819183 0.13905033 -0.04285997 0.09366881 0.20528544 0.10906025
0.07970949 0.08377466 0.072902106 0.011143209 -0.08476417 -0.036045488 0.04305554 0.1489764
0.022846418 0.18684201 0.07677554 0.17373122 0.08453477 0.0047021527 -0.034117483 0.016985862
0.18228105 0.16056418 0.20867857 0.10769174 -0.01214457 0.012659511 0.08682975 0.008318254
-0.09906146 -0.12252849 0.113233775 0.0032358319 0.073117316 0.06542383 -0.048096478 0.046583325
-0.078412995 -0.12126075 0.05907859 -0.02591446 -0.072352424 0.034625277 0.10963935 -0.117731154
0.07462667 -0.08990084 -0.10187462 0.061459795 0.035789862 -0.0672621 0.04678239 -0.048255786
0.06434831 0.10729961 -0.0899822 0.0015828311 -0.06763278 -0.04879576 -0.08396371 -0.079649895
-0.0673738 -0.05123402 -0.046008423 -0.0050293505 -0.026556462 0.1148082 -0.12491971 -0.056668565
0.06355275 -0.07439415 -0.03522092 -0.10389535 0.10879736 -0.041315332 -0.11334239 0.067948
0.015664771 -0.097554356 -0.008624002 0.02239424 0.060068756 0.06004162 0.08220166 -0.05621788
0.031119019 0.013287708 0.09727889 -0.10796559 0.014274433 0.123971105 0.0034673512 0.03704378
-0.017162539 0.031832274 0.054593075 0.021206511 0.1641545 0.1010945 0.10448258 0.10672708
-0.021536406 -0.02804895 0.17557716 -0.174954 0.18677665 0.14002326 -0.09541444 0.004973683
0.15812355 0.052359663 -0.1732741 0.17704822 -0.117310956 -0.008421591 -0.15829809 -0.060029052
0.14647706 0.010949503 0.060455617 0.13372256 0.120603174 0.052614592 -0.12137312 0.1522263
0.04041057 -0.03643565 0.00810816 -0.035548624 -0.10127664 -0.021129228 -0.1790304 -0.09096366
-0.09072588 0.07414428 0.12669693 0.030913334 -0.014017942 -0.050146487 0.09492393 0.18847983
0.13314183 0.13889776 -0.04946869 0.16729674 0.0493068 0.06838105 0.009701459 -0.007974243
-0.14927407 0.12623875 0.008677337 -0.110775545 -0.0027905894 -0.18583763 -0.066766195 -0.043662917
0.08889193 -0.05769246 0.06727243 0.068075724 0.011409587 0.0576746 0.06258138 -0.035873093
0.18352725 0.21574177 0.18957818 0.18276513 0.22207236 0.17008911 0.20951024 0.12911025
0.19709718 0.10287651 0.05626163 -0.02910479 0.113926165 0.10713242 0.056854874 -0.014352936
-0.011912078 0.093283124 0.12853576 0.13548534 0.1279486 0.14930177 0.17160907 0.064323954
0.07724882 -0.028937882 0.11998233 0.037315805 -0.026061494 0.17884642 0.07502419 0.0754059
0.1279248 0.13462973 0.1575287 0.114791855 -0.06182407 0.1687687 0.19997175 -0.02330672
0.13338427 0.20043087 0.04403933 0.19112228 0.075954996 -0.07983872 0.04572335 0.08949266
0.056538716 0.11298598 0.17225221 0.04371226 0.19647829 0.14824814 -0.027608208 0.06776693

lstm.bias_hh_l1 f4 [256]
00000000: 32c6 1abd 19b9 96bd 120d d5bb 5dc5 963d
00000010: e1f9 283e 4133 1a3e 13bf 3d3e 049d 613d
00000020: 1e52 2d3d c909 04bd f5f5 223d 5bf5 2c3e
00000030: eb70 053e b542 a73d 0b22 85bc 836d d53d
00000040: 1d9d 213e 1c81 823d 813c 94bc 5a6f 17bd
00000050: 0a40 263e 4805 e63d 64ee 4e3e 6c28 333e
00000060: bc39 173e 0db4 5f3d 03f0 3f3e 1304 043e
00000070: b41e 803d a8e5 1e3e 001c 083e ed0a 643b
00000080: 52a5 173d a3ec fcbb 14a3 d13d d03f 0c3e
00000090: 443b 3bbd af31 d23d d8c5 843c a188 aa3d
000000a0: 7769 413e 785d 513d b160 6dbc 6413 d33d
000000b0: e78b 80bd 0492 b73d 992c d33b 86c2 a4bc
000000c0: bd10 223e 4319 d03d 7777 2b3e 657c 063c
000000d0: 87af 1d3e 7acf 923d eda6 303e e400 3b3e
000000e0: 76a2 58bb 0fb5 d4bc dbe0 4d3e 7c85 c5bc
000000f0: 57b9 11bd 65c2 ca3b daea 81bb 5baf bbbc
00000100: 7c6c 813d 90ca 30bd 00b3 2b3d 4044 f4bb
00000110: 20c2 c43c c077 c0bb c8cd 863d a810 7dbd
00000120: c02e e0bc a097 b13b 6206 ef3d f20b be3d
00000130: 1271 c43d c069 e03d ccb4 983d c880 9b3c
00000140: fc73 d53d f44c 363d 40e3 96bc b026 16bc
00000150: 5e7e a53d e852 903c c0cd d53b f6ac fb3d
00000160: 5cfd d83d a4eb 013d 68c5 733d 8e64 bcbd
00000170: 9c7d 343d 6096 d7bd 6608 adbd 981e bd3c
00000180: ac5f e53d a057 843c b892 0d3d 2837 f13c
00000190: 6095 b8bb 7020 5b3d 24e9 be3d d805 fe3c
000001a0: ccca e53d 5017 dd3c e85d ee3d 86c6 b5bd
000001b0: 343a 9fbd 6002 c2bd 3089 303c bac2 973d
000001c0: 78a1 cb3d 5066 de3c 00b4 d33d 9046 d93c
000001d0: b476 30bd 60b1 f9bb 221b ed3d b077 cd3c
000001e0: 1c89 a23d d632 99bd 8ee1 99bd 784a dbbc
000001f0: d8ec 33bd 68ce c8bd fc04 b43d 2433 3f3d
00000200: 07eb a3bd f703 ee3d 3ebc 973d c54e 37be
00000210: 388a f33d 33ee 5d3d c63a 003e d1b9 ac3c
00000220: 75ad a6bd a065 a6bd 126b 263e 808b e9bc
00000230: 6074 963c 1cfc c2bc 8f21 08be 2c51 d1bd
00000240: 8b40 af3c 793f d23d 6408 8c3c bf24 d33c
00000250: 2997 0a3d c86d 233e 8343 293d f9d8 5ebd
00000260: 294a 2c3e eff1 31be a6c9 023e 8367 963d
00000270: 9279 69bd 7fe7 ae3d 9eea 0cbd 8219 a03c
00000280: d0bc 1abd 54f1 d63d 2a0f f5bb 5cd5 f23d
00000290: 7f9d 8e3d e3d9 2fbd 962a f5bb 3ef9 e7bd
000002a0: 5739 54bd a19e 1cbe b43a 0a3e 13f0 873c
000002b0: 3e98 5cbd a089 28be 30d4 b53d 19bd db3d
000002c0: 3b5d 453d eadd 24bd ef66 1ebe 656d a439
000002d0: abc8 063a 2bb5 bdbd c1e5 053e 27a1 23be
000002e0: 94c0 ad3b 0780 1a3d 0159 db3d 0987 a2bd
000002f0: 196f 373d aa77 42be 2d53 1c3e 9a61 063e
00000300: 4291 55bc f225 593a 8a54 7e3d b4e7 213e
00000310: 2847 053e deae 9a3b 60c6 e93d 995f 513c
00000320: 33f2 573e 784e 893d 79c1 dc3d aecd 09bb
00000330: 7ba9 d33d 8f7a 543e 4717 963d 97cb 253d
00000340: ef97 423d 0431 a63c 0e06 2d3c e22e bd3d
00000350: 4f3b 5b3c fcff 373e 80f3 a73d 2c53 073c
00000360: f282 263d c1b6 babb 2076 5d3e 638d e13d
00000370: 8928 4e3e 9283 e93d 76fc 213e fe5e 003e
00000380: cbd8 b1bd 0746 ffbc a0ef 963d 20ad 443c
00000390: 370e f73d 349f 2bbd 800c ab3d e903 2ebd
000003a0: b70b 283d 7156 f6bc d361 80bb f7c0 cd3c
000003b0: d3e3 823d 01ec 583d b21a 8f3d 85df ee3d
000003c0: 68a3 4f3e 11b6 9fbc 1e9c b8bb 1561 07bd
000003d0: d5f6 973d a30c 783d 50ba a93d 1111 263e
000003e0: 5316 4b3c e7a3 2d3e ee5a 8bba 0392 363e
000003f0: 1d18 f53d 5748 cd3d 7e67 c53c b00f 6e3c
-0.03778667 -0.07359523 -0.0065018022 0.07361863 0.16501571 0.15058614 0.1852992 0.055081382
0.04231464 -0.032235894 0.039785344 0.1689047 0.13031356 0.0816702 -0.016251585 0.10421278
0.1578259 0.06372282 -0.018095257 -0.036971428 0.16235366 0.11231476 0.20208126 0.17495888
0.14768118 0.05461507 0.18743901 0.12892179 0.06255856 0.15517294 0.13291931 0.0034796551
0.037022896 -0.007718639 0.10236183 0.13696218 -0.045710817 0.10263383 0.01620762 0.08326841
0.18887888 0.05111453 -0.014488385 0.10306433 -0.06276684 0.08963397 0.0064445254 -0.020112287
0.15826698 0.10161068 0.16744791 0.008208369 0.1539899 0.07168479 0.17251177 0.18262058
-0.0033055819 -0.025965242 0.20105307 -0.024111502 -0.035577144 0.0061877244 -0.003964764 -0.022910764
0.0631952 -0.04316193 0.041918755 -0.007454425 0.024018347 -0.0058736503 0.065822184 -0.061783463
-0.027366042 0.0054196864 0.11671139 0.09279622 0.09591879 0.1095767 0.07456359 0.018982306
0.10422513 0.044506982 -0.018418908 -0.009164497 0.08080743 0.017617658 0.0065247715 0.12288849
0.105951995 0.031718865 0.059514433 -0.09198867 0.044065103 -0.10526729 -0.084488675 0.023085877
0.111998886 0.016155064 0.03456375 0.029445246 -0.0056330413 0.05349773 0.09321812 0.031008646
0.11220321 0.026988655 0.11639005 -0.08875756 -0.07774773 -0.09473109 0.010774896 0.07410188
0.09942907 0.027148396 0.10337067 0.026522905 -0.043081954 -0.0076200217 0.11577441 0.025081486
0.07936308 -0.07480399 -0.07513724 -0.026768908 -0.043927044 -0.09804994 0.08790013 0.04667963
-0.08003812 0.1162185 0.07408951 -0.17901142 0.118915975 0.054182243 0.1252242 0.021084698
-0.08138553 -0.08124852 0.16251782 -0.028508902 0.018366039 -0.023801856 -0.13294052 -0.102205604
0.021393081 0.10266013 0.017093845 0.025774358 0.033835564 0.15959847 0.04132415 -0.05440614
0.16825165 -0.17377447 0.12772235 0.07343962 -0.057000704 0.08540248 -0.034403436 0.019543413
-0.037777722 0.104952484 -0.0074786143 0.11857101 0.06963634 -0.042932402 -0.0074818833 -0.11326836
-0.051812496 -0.15294887 0.13498956 0.016593968 -0.053856127 -0.1645875 0.08878362 0.10729427
0.048184615 -0.040250696 -0.15468954 0.00031362023 0.0005141596 -0.09263071 0.13075925 -0.15979443
0.005302498 0.037719753 0.107103355 -0.07935912 0.044783685 -0.1899096 0.15266104 0.1312317
-0.01303512 0.00082835474 0.06209234 0.15811044 0.13015425 0.004720553 0.1141479 0.01277914
0.21088485 0.0670442 0.107790895 -0.0021027136 0.1033506 0.20749877 0.073286586 0.04047736
0.047508176 0.020287044 0.010560526 0.09237458 0.0133808395 0.17968744 0.08200741 0.008259576
0.040652223 -0.0056980555 0.21627092 0.110132955 0.2013265 0.11402048 0.15818962 0.12536237
-0.08683928 -0.031161321 0.073699236 0.012004167 0.12063258 -0.041899875 0.083519936 -0.042484198
0.041026797 -0.030070515 -0.0039179116 0.025116427 0.0639111 0.052959446 0.069875136 0.11663727
0.20277178 -0.019495996 -0.005633845 -0.03305157 0.07420126 0.060558926 0.082874894 0.16217448
0.012395459 0.16957055 -0.0010631958 0.17829137 0.1196749 0.10023563 0.0240972 0.014530107
