cstr/gru_model.pth (torch, 98388 bytes, 9 tensors)

gru.weight_ih_l0 f4 [150, 4]
0	0x3d9f9ebf	0.0779395
1	0xbd672252	-0.056429215
2	0xbd76e05f	-0.06027257
3	0xbd9137b3	-0.07090702
4	0xbd9ade1c	-0.07561895
5	0xbe02689d	-0.1273522
6	0x3d5b6831	0.05356616
7	0xbdf81069	-0.12112505
8	0x3de0454a	0.10950716
9	0x3da664c9	0.08124692
10	0x3dd9da94	0.106373936
11	0xbdc18e0a	-0.0945092
12	0x3ce6ce01	0.028174402
13	0x3cd8b93b	0.026455512
14	0xbdf519ad	-0.11967788
15	0x3e014d0f	0.12627052
16	0xbd1dc99c	-0.038522348
17	0xbe14f3ad	-0.1454608
18	0x3deb9e75	0.11504833
19	0x3c578f6d	0.013156754
20	0xbc81e4f2	-0.01585624
21	0xbdfc2e66	-0.12313537
22	0xbdce139f	-0.10062336
23	0x3c1d1e29	0.00958971
24	0xbd9f73c7	-0.07785755
25	0xbce5ee34	-0.028067686
26	0xbd227706	-0.03966429
27	0x3d1f6b76	0.038920842
28	0x3dd480f3	0.103761576
29	0x3c2185b2	0.009858536
30	0xbaac990d	-0.0013168171
31	0x3dbe44f8	0.092904985
32	0x3d13827e	0.03601312
33	0xbd599085	-0.05311634
34	0x3dbfe42b	0.093696915
35	0x3b33200d	0.0027332336
36	0xbdbbafc5	-0.09164385
37	0xbd2dfbf4	-0.04247661
38	0xbdaaa0a3	-0.0833142
39	0xbdce6a7f	-0.10078906
40	0xbd544710	-0.051825583
41	0xbdcf8637	-0.10133021
42	0xbcba4f19	-0.022742795
43	0xbc278eaf	-0.0102268895
44	0xbc89c3d5	-0.016817013
45	0xbd3d46ac	-0.046209976
46	0xbcee0c17	-0.0290585
47	0x3d4ce044	0.050018564
48	0xbd057398	-0.032580942
49	0x3e0d82e7	0.13819467
50	0x3d7f707a	0.062363125
51	0xbb0f2df6	-0.0021847463
52	0xbda27f6e	-0.079344615
53	0xbdd6f524	-0.104959756
54	0xbdf48d16	-0.119409725
55	0xbd89a0da	-0.06720133
56	0xbdd7a382	-0.105292335
57	0x3d4dcfdc	0.05024706
58	0x3d95b209	0.07309348
59	0x3c970094	0.018432893
60	0xbdf74c72	-0.12075128
61	0xbd99eb57	-0.07515591
62	0xbd6d2781	-0.057899002
63	0xbd368a5d	-0.044565547
64	0x3d125f4c	0.035735413
65	0xbdde8b99	-0.1086647
66	0xbd924938	-0.071428716
67	0x3df28ead	0.118436195
68	0x3cec8314	0.028871097
69	0x3d8feeef	0.07027995
70	0x3d36ab3a	0.044596888
71	0x3d821c68	0.06353074
72	0xbd14fb40	-0.036372423
73	0x3c913626	0.017726015
74	0x3d846ba2	0.06465842
75	0x3db0b994	0.08629146
76	0xbdb007c7	-0.085952334
77	0xbd7e2861	-0.062050227
78	0xbdd8d4f8	-0.105874956
79	0x3dad54a1	0.08463407
80	0x3dd4c7fa	0.10389705
81	0x3d7a30f7	0.061081853
82	0x3d1e99e7	0.03872099
83	0x3cca83b5	0.024721006
84	0x3e07615a	0.1322073
85	0xbd4d8ed2	-0.050185032
86	0x3dc3436b	0.09534343
87	0x3c845aeb	0.016156634
88	0x3db40075	0.0878915
89	0x3d0460c0	0.03231883
90	0x3d0a7e5f	0.033811923
91	0xbdcebf9d	-0.10095141
92	0xbd8ee1ed	-0.06976686
93	0x3dfcc152	0.123415604
94	0x3d656aa5	0.056009907
95	0x3e05c58b	0.13063638
96	0x3e01e2c8	0.12684166
97	0xbd56c60b	-0.052434962
98	0x3d311006	0.04322817
99	0x3dc24a17	0.09486788
100	0x3d87ebbe	0.06636761
101	0x3da49ab2	0.08037318
102	0x3dfc4a0a	0.12318809
103	0xbd9e2967	-0.077227406
104	0x3da76a66	0.08174591
105	0xbd115381	-0.035480026
106	0x3db2b5b6	0.08726065
107	0x39d07e95	0.00039767163
108	0xbd8f8ea8	-0.070096314
109	0xbdb96970	-0.09053314
110	0x3dd22989	0.102618285
111	0xbdd7ce9c	-0.105374545
112	0x3ded2ba9	0.11580593
113	0x3d85ab63	0.0652683
114	0x3d26e4ba	0.040745474
115	0xbc842f86	-0.016135942
116	0xbde59259	-0.11209554
117	0x3dd16eaa	0.102261856
118	0x3a9226bc	0.001115046
119	0x3d12d28e	0.03584533
120	0x3dcbff4d	0.09960804
121	0x3d5ce818	0.05393228
122	0xbe114185	-0.1418515
123	0xbde490be	-0.1116042
124	0x3ca322b3	0.019914007
125	0x3d2553c8	0.040363103
126	0x3db7a6b1	0.08967341
127	0xbddee8b2	-0.10884227
128	0xbd6d0253	-0.057863545
129	0x3e0c66cd	0.1371109
130	0xbddd3989	-0.108019896
131	0x3daa57cd	0.08317528
132	0xbda88841	-0.08229113
133	0x3d59c598	0.053166956
134	0xbd32609b	-0.04354916
135	0xbd7662a7	-0.060152676
136	0xbdfd4c31	-0.12368048
137	0x3df1ff97	0.11816328
138	0xbd873fe3	-0.06603982
139	0x39a72f40	0.00031887926
140	0xbd6e8e5c	-0.058241233
141	0xbcd034f4	-0.025415875
142	0xbd9a4a32	-0.07533683
143	0xbd193047	-0.037399556
144	0xbb1335eb	-0.0022462558
145	0x3e1a748d	0.15083523
146	0x3e0c9370	0.13728118
147	0x3da2ac3c	0.07943007
148	0xbd058145	-0.032593984
149	0x3db121ec	0.08649048
150	0x3d8080bc	0.06274554
151	0x3d90a023	0.07061794
152	0xbc618b32	-0.013766097
153	0x3d9f7fdf	0.07788061
154	0x3dc749db	0.09730884
155	0xbda7ee16	-0.08199708
156	0xbce1479d	-0.027499968
157	0x3d46cbf5	0.048534352
158	0x3d99a023	0.07501247
159	0x3d0ef5b5	0.034902293
160	0x3e0b5f68	0.13610613
161	0xbcf88a1d	-0.030339295
162	0x3ce6ee66	0.02818985
163	0xbd8c88f3	-0.068620585
164	0xbd76edb3	-0.06028528
165	0x3dde6646	0.10859351
166	0xbcdab947	-0.026699675
167	0xbe0c3182	-0.1369076
168	0xbda7dbcb	-0.08196219
169	0x3d383a87	0.04497769
170	0x3de2fc0d	0.11083231
171	0xbd84b212	-0.06479277
172	0xbd317447	-0.04332378
173	0x3d0f818f	0.035035666
174	0xbda01703	-0.07816889
175	0x3d69dc0b	0.057094615
176	0x3d06290f	0.032754
177	0x3d9f642f	0.077827804
178	0xbe12a6d4	-0.14321452
179	0xbd5e4d43	-0.0542729
180	0x3d9ec07e	0.07751559
181	0xbcf1ccaa	-0.029516537
182	0xbdcb475c	-0.0992572
183	0x3cb15a9a	0.021649648
184	0xbdde21cc	-0.1084629
185	0x3db16bc2	0.08663131
186	0x3e20affd	0.15692134
187	0x3dcbc952	0.09950508
188	0x3dd25f92	0.10272135
189	0xbe1fb557	-0.1559652
190	0xbac629c1	-0.0015118645
191	0xbdd45628	-0.103679955
192	0xbdba2c8b	-0.09090527
193	0xbdd91f2c	-0.10601649
194	0xbd3ae370	-0.045627058
195	0x3d8f365c	0.0699279
196	0xbd507b53	-0.05089886
197	0x3dc4e7ce	0.09614526
198	0x3e1a69cb	0.1507942
199	0xbd4b5674	-0.049642995
200	0x3cdd67fa	0.027027119
201	0xbbad3398	-0.0052856915
202	0x3cd3d9c6	0.025860678
203	0xbda46fe8	-0.08029157
204	0xbd72d149	-0.05928162
205	0xbdbeccb7	-0.0931639
206	0x3d752694	0.059851244
207	0xbe2568a8	-0.16153204
208	0x3e03edd2	0.1288369
209	0xbd601746	-0.054709695
210	0xbd0f4b3c	-0.03498386
211	0x3d90825e	0.070561156
212	0xbdcd160d	-0.100139715
213	0xbc65e6ac	-0.014032047
214	0x3d770bd2	0.060314007
215	0x3b55ce4a	0.0032624179
216	0x3e1a3483	0.15059094
217	0xbdeb9e99	-0.115048595
218	0x3df3331e	0.11874984
219	0x3e1c3b51	0.15257002
220	0xbcefe6ed	-0.029284919
221	0x3dd46aba	0.10371919
222	0xbd561a71	-0.05227131
223	0xbd8efb43	-0.06981518
224	0xbce17932	-0.02752361
225	0x3ddffa19	0.10936374
226	0x3de93fc2	0.11389114
227	0xbdb04b1a	-0.086080745
228	0x3b3829ef	0.0028101166
229	0x3dbe8675	0.093029894
230	0x3de96f5c	0.11398193
231	0xbdd79b8f	-0.10527717
232	0xbd846094	-0.06463733
233	0xbe0150fe	-0.12628552
234	0x3d9f8947	0.077898555
235	0xbd813060	-0.06308055
236	0xbcacc2ed	-0.021089042
237	0x3d8f4079	0.06994719
238	0x3d2ba78e	0.04190784
239	0x3dd08e49	0.10183389
240	0x3c229a1f	0.009924441
241	0x3d0955fa	0.03352926
242	0x3def7e7b	0.11694046
243	0xbd3c7e36	-0.0460188
244	0xbde0d854	-0.10978761
245	0x3d613ac4	0.054987684
246	0x3df9ed98	0.122035205
247	0x3d9ba7e4	0.07600382
248	0x3df32580	0.11872387
249	0xbdb3c98f	-0.087786786
250	0xbc5d7dfa	-0.013518805
251	0x3dc58d90	0.096461415
252	0x3dcba96e	0.099444255
253	0x3cb9b329	0.022668438
254	0x3d80f35c	0.06296417
255	0xbdf079d9	-0.117419906

gru.weight_hh_l0 f4 [150, 50]
0	0xbdfcd5c6	-0.123454615
1	0xbd5bb006	-0.053634666
2	0x3daab116	0.08334558
3	0xbd0a5eb2	-0.033781715
4	0x3d017a18	0.03161058
5	0x3ba25720	0.0049542338
6	0x3c303710	0.010755315
7	0x3d8812f6	0.066442415
8	0xbc1ce9f0	-0.009577259
9	0xbd702774	-0.058631375
10	0xbdf4ff70	-0.11962783
11	0xbc673550	-0.014111832
12	0x3c73c880	0.014879346
13	0xbd22a7a0	-0.03971064
14	0x3e04dde3	0.12975268
15	0x3dfd5c7e	0.12371157
16	0xbd0a4882	-0.033760555
17	0x3d93ae4a	0.072109774
18	0x3e0c2549	0.13686098
19	0x3e02e8c7	0.1278411
20	0xbd20ca36	-0.039255343
21	0xbd0d9a80	-0.03457117
22	0xbe012d81	-0.12615015
23	0x3d4c4cc4	0.049877897
24	0x3c475e10	0.012168422
25	0x3de98a7a	0.114033654
26	0xbd169366	-0.036761664
27	0xbc82d830	-0.015972227
28	0xbddd6614	-0.108104855
29	0xbcd678d4	-0.026180662
30	0x3c01c5f0	0.007920727
31	0x3dbfe5d4	0.09370008
32	0xbdb1a2a6	-0.08673601
33	0xbd8a6bf3	-0.06758871
34	0xbbfe87a0	-0.0077676326
35	0x3d71bef0	0.059019983
36	0x3c29d7e0	0.01036641
37	0xbdec029e	-0.11523937
38	0xbd698662	-0.057012923
39	0xbd1a7952	-0.037713356
40	0xbdd3d786	-0.10343842
41	0x3dbfac14	0.09358993
42	0xbd79c9f4	-0.060983613
43	0xbe011f90	-0.12609696
44	0xbd82cbd5	-0.06386534
45	0xbe0924ae	-0.13392898
46	0xbdc3d9d3	-0.09563031
47	0xbdb29320	-0.08719468
48	0x3e0643d3	0.1311181
49	0xbdf24ae8	-0.118306935
50	0x3d804fa4	0.0626519
51	0xbdc1607e	-0.094422325
52	0x3d88eb9e	0.066855654
53	0xbdf845d8	-0.12122697
54	0x3d834074	0.06408778
55	0xbd5e1e86	-0.05422833
56	0x3ced6260	0.028977573
57	0xbd85c057	-0.065308265
58	0x3dfbd63e	0.12296723
59	0x3c58ce10	0.013232723
60	0x3da22780	0.0791769
61	0x3e107be5	0.14109762
62	0xbcdff908	-0.027340427
63	0xbd9cf0c2	-0.076631084
64	0xbc9cdd68	-0.019148543
65	0x3dcbd37a	0.09952445
66	0x3cf056b0	0.02933821
67	0xbdfb474f	-0.122694604
68	0xbdc11a45	-0.09428839
69	0x3d8fc7ec	0.07020554
70	0xbde7a5a3	-0.113108896
71	0xbdb91b82	-0.0903845
72	0x3d830992	0.0639831
73	0x3e009275	0.12555869
74	0xbd272fc2	-0.04081703
75	0xbe084226	-0.13306484
76	0xbdcac173	-0.09900179
77	0x3d3bff60	0.04589784
78	0x3df7620e	0.12079249
79	0xbda9894e	-0.08278142
80	0x3d9ce0a4	0.07660034
81	0x3c5b5310	0.013386503
82	0xbe049199	-0.12946166
83	0xbd1f5e2c	-0.03890817
84	0xbde425a2	-0.111399904
85	0x3e0da75b	0.13833372
86	0x3e0bf54f	0.13667797
87	0x3da4618e	0.080264196
88	0x3c1909b0	0.009340689
89	0x3e07346f	0.13203596
90	0xbd0a8634	-0.033819392
91	0x3e10ca69	0.14139713
92	0x3a276c00	0.00063866377
93	0x3ddda510	0.10822499
94	0xbdde1e3a	-0.10845609
95	0xbdfee748	-0.12446457
96	0xbdde8ee0	-0.10867095
97	0xbd91c03e	-0.071167454
98	0xbd24bd5a	-0.040219642
99	0xbd9855e5	-0.07438258
100	0x3cee3f00	0.029082775
101	0xbdc19414	-0.09452072
102	0x3cf9a928	0.030476168
103	0xbc8cbef4	-0.017180897
104	0xbdbbddbd	-0.091731526
105	0xbcce2c1c	-0.025167517
106	0x3e012c65	0.12614591
107	0x3de2cd8e	0.11074363
108	0xbb98efc0	-0.0046672523
109	0x3dde8556	0.108652756
110	0xbdeea0a1	-0.11651731
111	0xbdcfe81c	-0.10151693
112	0xbcf83020	-0.030296385
113	0x3ddadc54	0.106865555
114	0x3d913b62	0.070914045
115	0xbde9d65d	-0.1141784
116	0x3cd7eb80	0.026357412
117	0xbdb53482	-0.08847906
118	0xbe0fe5d1	-0.14052512
119	0x3dc75512	0.09733023
120	0x3ccd8cf0	0.025091618
121	0x3b8ec300	0.004356742
122	0xbcbb03b0	-0.022828907
123	0x3cff0628	0.031130865
124	0x3d357ec0	0.04431033
125	0xbd412652	-0.047155686
126	0xbd868639	-0.0656857
127	0x3e05aa41	0.13053228
128	0x3dd6b780	0.104842186
129	0x3d8cb962	0.068712965
130	0x3cf792d0	0.030221373
131	0xbd6e7aca	-0.05822257
132	0xba9dc800	-0.0012037754
133	0x3de3d4ee	0.111245975
134	0x3c323320	0.010876447
135	0x3cdefb38	0.0272194
136	0x3e0d7bef	0.13816808
137	0xbd216418	-0.039402097
138	0x3c1da6b0	0.009622261
139	0x3d64531c	0.05574332
140	0xbcec8ff4	-0.028877236
141	0x3ce953d8	0.028482363
142	0xbcac108c	-0.021003984
143	0xbd9aa9a9	-0.07551891
144	0x3d23a588	0.039952785
145	0x3df99a2a	0.121876076
146	0xbdcda71a	-0.10041638
147	0x3c4a5aa0	0.012350708
148	0xbdcc78e2	-0.09983994
149	0x3ddd9912	0.108202115
150	0x3e0a7117	0.13519703
151	0xbd7e7794	-0.062125757
152	0x3d40ccd0	0.047070324
153	0x3c8bb398	0.01705341
154	0xba45f300	-0.00075511634
155	0xbced4e8c	-0.028968118
156	0xbbe575c0	-0.0070025623
157	0x3cf3def8	0.029769406
158	0xbd8b03cd	-0.06787834
159	0xbd085842	-0.033287294
160	0x3b04b7c0	0.0020251125
161	0xbe0936c5	-0.13399799
162	0xbd48ce66	-0.049024962
163	0xbe01008e	-0.12597868
164	0x3dd48dc8	0.10378605
165	0xbd7e86ec	-0.06214039
166	0x3d66481c	0.056221113
167	0x3ceb8030	0.028747648
168	0x3dda4144	0.1065698
169	0x3e03e321	0.12879612
170	0xbde3c994	-0.11122432
171	0xbcca7884	-0.02471567
172	0x3de1df7a	0.11028953
173	0xbd1fcda2	-0.039014466
174	0x3da6821a	0.08130284
175	0x3d350c40	0.044201136
176	0xbd17728a	-0.036974467
177	0x3d259320	0.040423512
178	0x3deb0ac2	0.11476661
179	0xbc4be8e0	-0.012445658
180	0xbe0e56e9	-0.13900341
181	0x3a7f2700	0.00097332895
182	0x3dcbfac8	0.09959942
183	0x3e0a3737	0.13497625
184	0x3d95d646	0.0731626
185	0x3e0d607d	0.13806339
186	0xbd960f78	-0.07327169
187	0xbdd8b2e8	-0.10580999
188	0xbe048b25	-0.12943704
189	0xbdeea861	-0.116532095
190	0xbdfaee1c	-0.12252447
191	0x3df7cca6	0.120995805
192	0xbe007a5c	-0.12546676
193	0xbd2dc130	-0.042420566
194	0x3d05dc30	0.03268069
195	0xbd88da75	-0.06682292
196	0x3ddd73bc	0.1081309
197	0xbe0ee683	-0.1395512
198	0x3d069b3c	0.032862887
199	0x3e079fed	0.132446
200	0xbd0b6b76	-0.03403803
201	0xbbdbcf40	-0.0067080557
202	0x3db17a54	0.0866591
203	0xbdba7378	-0.09104055
204	0xbd8adc64	-0.067803174
205	0x3e091701	0.13387682
206	0x3cea6ae8	0.02861543
207	0x3d781e5c	0.060575828
208	0x3dfff66a	0.12498172
209	0x3d10ac68	0.03532067
210	0x3dc238be	0.09483479
211	0x3de6ab46	0.112631366
212	0xba899380	-0.0010496229
213	0x3dc496e4	0.095990926
214	0xbc46b180	-0.01212728
215	0x3ddb40f0	0.10705745
216	0x3d033d34	0.03204079
217	0xbc29e8e0	-0.010370463
218	0xbcc38cc4	-0.023870833
219	0xbdc5d90c	-0.09660539
220	0xbd0a0d32	-0.03370399
221	0xbe00de98	-0.12584913
222	0xbdf9649f	-0.12177395
223	0x3dfe841e	0.12427543
224	0xbc99bbe0	-0.018766344
225	0x3d8fea36	0.07027094
226	0xbdc9652c	-0.0983375
227	0xbe0ee2fd	-0.13953777
228	0xbd3e0be6	-0.046398066
229	0x3b91b2a0	0.0044463426
230	0x3d2e6c80	0.042583942
231	0x3d6883fc	0.056766495
232	0x3df749fe	0.1207466
233	0x3db934d4	0.09043279
234	0x3d998778	0.07496542
235	0xbdaa8b03	-0.08327296
236	0xbd48e4ec	-0.049046442
237	0xbd29614a	-0.041352548
238	0x3d3ce674	0.046118215
239	0xbd62b234	-0.05534573
240	0xbdf2a9f8	-0.11848825
241	0x3c7183f0	0.014740929
242	0xbd8e1175	-0.069369234
243	0xbd41ed48	-0.04734543
244	0xbddf7dea	-0.10912688
245	0x3dc8e9ca	0.09810217
246	0xbd2defbc	-0.042464957
247	0xbd5cb5b4	-0.053884223
248	0x3c995478	0.018717036
249	0xbbf26900	-0.007397771
250	0x3cb85fb0	0.022506565
251	0xbd07bad8	-0.033137172
252	0x3ddc8bee	0.10768877
253	0x3dab23cc	0.08356437
254	0x3df07802	0.1174164
255	0xbdf022ee	-0.11725412

gru.bias_ih_l0 f4 [150]
0	0x3cafdf66	0.02146883
1	0xbe157271	-0.14594437
2	0x3c44710c	0.011989843
3	0x3dee0727	0.11622458
4	0xbdcc2056	-0.09967105
5	0x3d320bd4	0.04346831
6	0xbdda9430	-0.10672796
7	0x3d4bb87a	0.049736477
8	0x3d038fb8	0.032119483
9	0x3ce135f0	0.02749154
10	0xbdcd8c95	-0.100365795
11	0x3e145786	0.14486513
12	0x3d3c2b6f	0.04593986
13	0x3bd9b5f2	0.006644004
14	0x3c97c5d5	0.01852695
15	0x3d96cd83	0.07363417
16	0x3e084c54	0.13310367
17	0x3cf5b67f	0.029994247
18	0x3c51a8d2	0.012796598
19	0xbd11690a	-0.035500564
20	0xbdd694dc	-0.104776114
21	0xbd9fd243	-0.07803776
22	0xbd99c7fe	-0.075088486
23	0x3db9fb87	0.09081178
24	0x3d078933	0.033089828
25	0x3d432310	0.04764086
26	0xbd5267f0	-0.051368654
27	0x3ddc1f79	0.107481904
28	0xbd4058db	-0.04695974
29	0xbcdec54c	-0.027193688
30	0x3dc6f413	0.09714522
31	0xbd2db2f7	-0.042407002
32	0x3d3400a5	0.043945927
33	0xbdc82595	-0.09772793
34	0xbdbc3cb1	-0.091912635
35	0xbdabdf62	-0.08392216
36	0xbdbed38c	-0.09317693
37	0xbde99350	-0.11405051
38	0x3cf44bf2	0.02982137
39	0xbdf3ff86	-0.119139716
40	0xbd5d6dbc	-0.05405973
41	0xbde461f3	-0.11151495
42	0xbd78bed6	-0.06072887
43	0xbe01a0ed	-0.12659045
44	0x3c5f322b	0.013622801
45	0xbdf19439	-0.11795849
46	0xbceb4c4a	-0.0287229
47	0xbc1a83cf	-0.00943084
48	0x3c258924	0.010103498
49	0xbd50a96c	-0.050942823
50	0x3dcf33f2	0.1011733
51	0x3dc203a4	0.09473351
52	0xbcf9a5ba	-0.030474532
53	0x3deec0cd	0.116578676
54	0x3ccf8856	0.025333565
55	0xbe008e88	-0.12554371
56	0x3dab20fb	0.083559
57	0xbdff8b41	-0.124777324
58	0x3df6ae6c	0.12044987
59	0x3d6edefb	0.05831812
60	0x3dfd9595	0.12382046
61	0x3d76a399	0.060214613
62	0xbd9109d5	-0.070819534
63	0xbd1f660f	-0.03891569
64	0x3d99f228	0.07516891
65	0xbdf41481	-0.11917973
66	0xbdd2acb9	-0.102868505
67	0x3db322c6	0.08746867
68	0xbd51677b	-0.051124077
69	0xbdc9c565	-0.09852103
70	0xbcf0c95a	-0.029392887
71	0x3d8005f2	0.06251134
72	0xbd837683	-0.06419089
73	0xbd4c33db	-0.04985414
74	0x3db61cf6	0.088922426
75	0xbdaf4e6d	-0.085598804
76	0x3c9102a4	0.017701454
77	0x3d5271c4	0.051378027
78	0x3def7c82	0.1169367
79	0x399daecd	0.0003007561
80	0xbdc66d3f	-0.09688806
81	0x3dd4f432	0.10398139
82	0xbd36736b	-0.044543665
83	0x3df02f5f	0.11727785
84	0xbde40cc6	-0.11135249
85	0xbe098056	-0.13427863
86	0xbe12c92f	-0.14334558
87	0xbe1a1347	-0.15046416
88	0x3d3ad513	0.04561336
89	0x3cb33594	0.021876134
90	0xbd970784	-0.0737448
91	0x3d5d9be6	0.054103754
92	0xbddbc0f1	-0.1073016
93	0x3d0fd9bb	0.035119753
94	0xbbfed9fa	-0.0077774497
95	0x3d977587	0.073954634
96	0x3dfe7908	0.12425429
97	0xbd0241c7	-0.03180101
98	0xbe076848	-0.13223374
99	0xbdfb3823	-0.122665666
100	0xbc826c2c	-0.015920721
101	0x3e0d549a	0.13801804
102	0xbc78dc65	-0.015189265
103	0x3d1e3fb7	0.038634982
104	0x3cc2a632	0.023760889
105	0x3de6778a	0.11253269
106	0xbd98d048	-0.074616015
107	0xbe1a2abf	-0.15055369
108	0x3c6156bf	0.013753592
109	0xbd52c072	-0.05145306
110	0xbd84b44d	-0.06479702
111	0xbd151a33	-0.03640194
112	0x3e0a8bdf	0.13529919
113	0xbdfd84ea	-0.12378867
114	0x3dcebd8d	0.10094748
115	0x3d6c82d6	0.057741962
116	0xbd246630	-0.040136516
117	0xbc110756	-0.008851847
118	0xbe0dee20	-0.13860369
119	0x3bad3e47	0.005286965
120	0x3d5fa0af	0.0545966
121	0x3dd8a10d	0.10577593
122	0xbddc14d8	-0.10746163
123	0xbd0b0b0d	-0.033946086
124	0x3dc79419	0.09745044
125	0x3d24be3c	0.040220484
126	0x3d866e72	0.065640345
127	0xbd974e49	-0.073879786
128	0x3de9c35c	0.11414215
129	0xbe10e866	-0.14151153
130	0x3dbcc664	0.092175275
131	0x3d98d2bd	0.0746207
132	0xbd737ea9	-0.059446964
133	0x3d489055	0.04896577
134	0x3dc72c6a	0.09725268
135	0xbd0e54e3	-0.034748923
136	0xbd700641	-0.058599714
137	0xbdbee955	-0.09321848
138	0x3e0c4706	0.13698968
139	0x3d34e0c1	0.044159655
140	0x3ce3b6f1	0.027797194
141	0x3da1e787	0.079054885
142	0xbde5bb24	-0.11217335
143	0x3dbac6fb	0.09119984
144	0xbb1fed83	-0.0024403043
145	0x3e0602c6	0.13086995
146	0xbc4e651b	-0.012597348
147	0x3cd57ec7	0.026061429
148	0xbde62a43	-0.112385295
149	0xbd1bc42e	-0.03802889

gru.bias_hh_l0 f4 [150]
0	0x3d443855	0.047905285
1	0x3dc1a87a	0.094559625
2	0xbdea81c0	-0.11450529
3	0xbdc03219	-0.09384555
4	0x3d886e0e	0.06661616
5	0xbe27c980	-0.1638546
6	0x3b82713a	0.003980783
7	0xbc99be0d	-0.018767381
8	0x3e02a790	0.12759233
9	0x3d90618a	0.07049854
10	0x3a8dcd7d	0.0010818687
11	0xbd83b0bc	-0.06430194
12	0x3d78a682	0.06070567
13	0xbc832a8d	-0.0160115
14	0xb9a84090	-0.0003209156
15	0xbc704a61	-0.014666171
16	0x3dcac9b2	0.099017516
17	0x3e16351a	0.14668694
18	0x3d533a4b	0.051569264
19	0x3d02757d	0.031850327
20	0x3d08d252	0.033403702
21	0xbd16c08d	-0.036804724
22	0x3da65874	0.0812234
23	0xbdc7e60b	-0.09760674
24	0x3cc751b3	0.02433095
25	0x3dc7c253	0.09753861
26	0x3dab7137	0.083712034
27	0xbddbd9f3	-0.1073493
28	0xbd98a123	-0.074526094
29	0xbcdea22c	-0.027176939
30	0xbdf7a34f	-0.120916955
31	0xbc8288d6	-0.01593439
32	0xbd0a7ae2	-0.033808596
33	0xbd5b260f	-0.053503092
34	0x3c862921	0.016377034
35	0x3dfdd710	0.123945355
36	0x3b156527	0.0022795887
37	0x3e0dfc5e	0.13865802
38	0xbd6b030f	-0.057375964
39	0xbcf5f19c	-0.030022435
40	0xbc98d073	-0.018654084
41	0x3d95d459	0.07315893
42	0x3d2d4830	0.04230517
43	0xbd94fdf3	-0.072749995
44	0xbdc8b340	-0.09799814
45	0xbe1268ff	-0.14297865
46	0xbdf03747	-0.11729293
47	0xbde08393	-0.10962596
48	0x3a0462ba	0.0005050112
49	0x3dde7df4	0.108638674
50	0xbd818037	-0.06323283
51	0xbd9fc74b	-0.07801684
52	0x3b6afbeb	0.0035855721
53	0x3c6385f2	0.0138869155
54	0xbd80d379	-0.06290335
55	0xbdf556d5	-0.119794525
56	0x3c6e8448	0.0145579055
57	0xbce580dc	-0.028015547
58	0xbd35c52c	-0.04437749
59	0x3d5d5208	0.05403331
60	0x3d4adb7f	0.049525734
61	0x3ddfd931	0.10930098
62	0x3bbca992	0.005757519
63	0xbd9f53c5	-0.0777965
64	0xbdcd0d30	-0.10012281
65	0x3b448540	0.002998665
66	0xbe192d60	-0.14958715
67	0x3d977670	0.07395637
68	0x3da682ea	0.081304386
69	0xbdf851e2	-0.12124993
70	0xbc24d586	-0.010060674
71	0x3ca99245	0.02069963
72	0xbde38a89	-0.11110408
73	0x3d4066a4	0.046972886
74	0x3c9548ad	0.018223131
75	0xbcb0b44c	-0.021570347
76	0xbde4f1b0	-0.11178911
77	0xbd623558	-0.055226654
78	0x3ba9197f	0.00516051
79	0x3cb62c6f	0.022237984
80	0xbe180040	-0.14843845
81	0xbe145631	-0.14486004
82	0xbdda583c	-0.106613606
83	0x3d835737	0.06413119
84	0x3d229ebf	0.039702173
85	0x3d01a968	0.0316557
86	0xbe16c17c	-0.14722246
87	0x3da4a5db	0.08039447
88	0xbe0406ab	-0.12893169
89	0xbdbc02ff	-0.09180259
90	0xbbb3b297	-0.005483936
91	0xbd9b97a4	-0.075972825
92	0x3e0ab386	0.13545045
93	0x3cbdd1a9	0.023171263
94	0xbd9d0e83	-0.076687835
95	0x3dd356b3	0.10319271
96	0xbca8094a	-0.020512242
97	0xbceae263	-0.028672403
98	0x3d01a24d	0.031648923
99	0x3da64d16	0.08120172
100	0xbd96af5b	-0.07357665
101	0x3c3d6a2e	0.01156096
102	0xbdc55571	-0.09635437
103	0x3d768324	0.06018366
104	0x3d3efc68	0.046627432
105	0xbd34535d	-0.044024814
106	0xbd9641ce	-0.0733677
107	0x3d963abc	0.073354214
108	0x3e04ed50	0.12981153
109	0xbdbf7274	-0.09348002
110	0x3e0a7d3b	0.13524334
111	0x3dd1a6db	0.10236903
112	0x3d5df157	0.054185238
113	0x3dbbc1f3	0.09167852
114	0xbd9dca18	-0.07704562
115	0x3d086734	0.033301547
116	0xbda6dce3	-0.081475995
117	0x3d45189b	0.04811917
118	0xbc8a8f2a	-0.01691397
119	0xbdb08342	-0.086187854
120	0x3dff2634	0.124584585
121	0xbd8ffd14	-0.07030693
122	0xbdf53146	-0.11972289
123	0xbe1aea01	-0.15128328
124	0x3d893c8f	0.06701004
125	0xbe21c5c4	-0.15798098
126	0xbd325672	-0.043539472
127	0xbda02e16	-0.0782129
128	0x3bb4ecca	0.0055213915
129	0x3db57272	0.08859719
130	0x3ca69829	0.020336227
131	0x3de0bd36	0.10973589
132	0x3e0433d8	0.12910402
133	0x3e0c9087	0.13727008
134	0x3bd3ddf5	0.0064656683
135	0x3e238460	0.15968466
136	0xbd3b55b7	-0.04573604
137	0xbd9e65cd	-0.07734261
138	0xbdc260d9	-0.094911285
139	0xbd38bfe9	-0.045104895
140	0x3dc43d58	0.09582013
141	0xbde450e2	-0.1114824
142	0xbcc6261c	-0.024188094
143	0x3c9ede8f	0.019393234
144	0xbde1dc33	-0.11028328
145	0xbde1457a	-0.1099958
146	0xbda823ee	-0.08209978
147	0xbb83d7f9	-0.0040235487
148	0x3b1c477f	0.0023846326
149	0xbdb8bdd3	-0.09020581

gru.weight_ih_l1 f4 [150, 50]
0	0x3d588958	0.052865356
1	0x3c8eea12	0.017445598
2	0x3d6c5c83	0.057705414
3	0xbd5f0e5d	-0.054457057
4	0xbd44a619	-0.048009966
5	0x3d8178f6	0.063218996
6	0x3d883cf1	0.06652249
7	0x3dda0617	0.10645693
8	0xbdab0116	-0.083498165
9	0x3dc19fb3	0.09454288
10	0x3d00e030	0.0314638
11	0xbc883d25	-0.016630718
12	0x3e133d4a	0.14378849
13	0xbd8eaf08	-0.06966978
14	0x3c38496d	0.011247975
15	0x3d0ec179	0.03485248
16	0xbd55e4ac	-0.05222003
17	0xbceb9034	-0.028755285
18	0xbe09a9da	-0.134437
19	0xbdce05bc	-0.100596875
20	0xbd5af2c2	-0.05345417
21	0x3e109a29	0.14121307
22	0x3d38b780	0.045096874
23	0xbde42279	-0.11139388
24	0x3da4082a	0.0800937
25	0x3d59bc31	0.05315799
26	0xbd5b180e	-0.053489737
27	0xbd5bb1e1	-0.053636435
28	0x3d9743b7	0.073859625
29	0xbd981e9d	-0.07427714
30	0x3ce15ccb	0.027510067
31	0x3db14254	0.08655229
32	0xb895c386	-7.141293e-05
33	0x3dff5b9f	0.12468647
34	0x3e1ece38	0.15508354
35	0x3e06cec7	0.13164817
36	0x3cf17b41	0.029477717
37	0xbdadac97	-0.084801845
38	0x3e04c13e	0.12964341
39	0x3c7e5f8f	0.015525713
40	0xbdda7276	-0.10666363
41	0x3d6b9d34	0.057522967
42	0xbdff5bae	-0.124686584
43	0x3df0b7e4	0.11753824
44	0x3a9b335a	0.0011840865
45	0xbd940b40	-0.07228708
46	0x3c942d2f	0.018087951
47	0xbd4c8b20	-0.049937367
48	0x3d83db25	0.06438283
49	0x3da9ec3a	0.0829701
50	0xbdaded7e	-0.08492564
51	0x3d663782	0.05620528
52	0xbd3c98c0	-0.04604411
53	0x3d0acaf4	0.033884957
54	0x3df99084	0.12185767
55	0x3db386ea	0.08765967
56	0x3dc4bb16	0.09605996
57	0xbdc09634	-0.09403649
58	0x3dce3bad	0.10069976
59	0x3dc31187	0.095248275
60	0x3da7c5e4	0.081920415
61	0xbe0f55af	-0.1399753
62	0xbd4b729e	-0.049669854
63	0x3dca3803	0.09873965
64	0x3ca9eb02	0.020741943
65	0x3da82070	0.08209312
66	0x3d960bbe	0.073264584
67	0x3dd051b0	0.10171831
68	0x3d307933	0.043084335
69	0x3d3739d9	0.044732902
70	0x3c6696e9	0.014074066
71	0xbe1edf7b	-0.15514939
72	0x3e1bb93d	0.15207382
73	0xbde85292	-0.11343874
74	0x3da6a03d	0.08136032
75	0x3e1c06f3	0.15237026
76	0x3d777784	0.060416713
77	0x3db9c01f	0.09069847
78	0xbc74bee9	-0.014938095
79	0x3df8ab8d	0.12142096
80	0x3d2f1aec	0.042750284
81	0x3da51406	0.0806046
82	0xbd4b8e93	-0.049696516
83	0x3de34eb6	0.11098997
84	0xbd010249	-0.03149632
85	0xbdfe91a8	-0.124301255
86	0xbd59447f	-0.05304384
87	0xbd97c13e	-0.07409905
88	0xbda34ae1	-0.079732664
89	0xbddfa7d9	-0.10920686
90	0x3d863211	0.06552518
91	0xbce2843a	-0.027650941
92	0x3dbbd27f	0.09171008
93	0x3c0b267f	0.008493065
94	0xbdb6e6c8	-0.08930737
95	0x3de86f91	0.113494046
96	0x3dddb616	0.10825746
97	0x3d433970	0.0476622
98	0xbd81396d	-0.06309781
99	0xbc629ca2	-0.0138312895
100	0x3db1dbe1	0.08684517
101	0x3d9479f3	0.072498225
102	0xbbddf1ba	-0.006773201
103	0x3cbeaa27	0.023274494
104	0x3df3712a	0.11886819
105	0xbe0388b5	-0.12845118
106	0x3db2a443	0.08722737
107	0x3dc5bdfd	0.09655378
108	0xbd845429	-0.06461365
109	0x3d7fb0d7	0.062424507
110	0x3d9a4b60	0.07533908
111	0xbdbec9c9	-0.09315831
112	0x3c514809	0.012773522
113	0x3aa13c80	0.0012301356
114	0xbdc553ce	-0.09635125
115	0xbd393e1c	-0.045225248
116	0x3d2d2fff	0.0422821
117	0xb9b6999d	-0.00034828196
118	0xbd09e494	-0.033665255
119	0xbd109951	-0.035302464
120	0xbdb53666	-0.08848266
121	0x3d87fa68	0.06639558
122	0x3cdcffe0	0.02697748
123	0x3c1dde25	0.009635483
124	0xbda23501	-0.07920266
125	0xbd4fc6d5	-0.05072673
126	0x3e06c9a4	0.13162857
127	0x3daaa071	0.08331383
128	0x3d5d3b1b	0.054011445
129	0xbccf0d5b	-0.025274923
130	0x3d9d6788	0.07685763
131	0x3d113522	0.035451062
132	0x3ca6516b	0.020302495
133	0x3d799719	0.060935114
134	0x3d393d25	0.045224328
135	0x3d150831	0.036384765
136	0xbdf0db04	-0.11760524
137	0x3d1dd277	0.038530793
138	0x3dcda984	0.10042098
139	0x3dd93a47	0.10606819
140	0xbd8625a2	-0.06550147
141	0x3d86f0ca	0.065888956
142	0x3d56a880	0.052406788
143	0x3c80c6ad	0.015719736
144	0xbdf15d15	-0.11785332
145	0xba0adb4c	-0.000529696
146	0x3db5c299	0.08875007
147	0x3d953034	0.07284585
148	0x3db4d7ab	0.08830198
149	0x3d0ff566	0.03514614
150	0x3d224a42	0.0396216
151	0xbd3e3188	-0.046433955
152	0xbe23e11a	-0.16003838
153	0xbcbfb087	-0.023399604
154	0x3e1fda31	0.15610577
155	0x3dac235d	0.084051825
156	0x3dc522df	0.09625792
157	0xbbbe95d1	-0.0058161994
158	0xbd9a3ce6	-0.07531147
159	0x3db23342	0.08701183
160	0x3d9057d4	0.07048002
161	0x3e2729bc	0.16324514
162	0x3db8a6dc	0.09016201
163	0x3dafc136	0.08581774
164	0x3ca09202	0.019600872
165	0xbd2bb144	-0.0419171
166	0xbdb61c59	-0.08892126
167	0xbe12d93e	-0.14340684
168	0xbdbea4b5	-0.09308759
169	0x3caa40ed	0.020782912
170	0xbb70c53e	-0.003673866
171	0x3db1ed4c	0.08687839
172	0x3dde898b	0.10866078
173	0x3d84e63f	0.064892285
174	0xbcab38d8	-0.020901129
175	0xbc6f6959	-0.014612519
176	0xbd6861a0	-0.056733727
177	0xbd19744a	-0.037464418
178	0x3dd3f448	0.10349327
179	0xbd89df66	-0.06732063
180	0xbd773516	-0.06035336
181	0x3ce174f0	0.02752158
182	0xbd6199e7	-0.055078413
183	0xbd871b49	-0.06597001
184	0x3d3b573e	0.045737498
185	0xbc81dd51	-0.015852602
186	0xbe23de8b	-0.16002862
187	0xbbc4d0e4	-0.006006347
188	0xbd7a3c95	-0.06109293
189	0x3db5e17f	0.088809006
190	0x3dd1b809	0.1024018
191	0x3c96d9eb	0.018414458
192	0xbe042d1b	-0.12907831
193	0xba401a5a	-0.00073281454
194	0xbda7e72a	-0.08198388
195	0xbdd2623c	-0.10272643
196	0x3df39958	0.118944824
197	0x3d1f6d06	0.038922332
198	0x3dbb5ff1	0.09149159
199	0xbcc723d3	-0.024309075
200	0x3df4e931	0.1195854
201	0xbd4fa0d2	-0.05069048
202	0xbda7b0d9	-0.08188028
203	0xbdefcf1a	-0.11709423
204	0xbe043c1a	-0.12913552
205	0x3c1077dd	0.00881764
206	0x3da44ae7	0.08022099
207	0x3e078cad	0.13237257
208	0xbe07418c	-0.13208598
209	0xbd83e1f9	-0.06439585
210	0x3dff3ca0	0.12462735
211	0xbde4cf21	-0.11172319
212	0xbd350ead	-0.04420345
213	0x3c604789	0.01368893
214	0xbd50d059	-0.050979946
215	0x3d029be5	0.031886954
216	0x3d28473e	0.041083567
217	0xbc2b77e8	-0.0104656
218	0xbd113e83	-0.035460006
219	0x3c5f1e34	0.013618041
220	0x3e002d85	0.12517364
221	0xbe07d05f	-0.13263081
222	0xbdce3e43	-0.10070469
223	0xbdd1ee37	-0.10250514
224	0xbd3fe6a9	-0.046850834
225	0x3d231820	0.03981793
226	0xbcacfa94	-0.021115579
227	0x3d5ec6dc	0.054388866
228	0x3dcead0e	0.10091601
229	0xbc55d757	-0.013051829
230	0x3db46b63	0.08809545
231	0x3dbccfcf	0.09219324
232	0x3c988035	0.018615821
233	0xbe0c4ee5	-0.13701971
234	0x3dc95b4c	0.098318666
235	0x3d9d5a9a	0.076832965
236	0xbd8ff13e	-0.07028435
237	0x3d455c7e	0.04818391
238	0xbda04c0d	-0.078270055
239	0x3d98eb5b	0.074667655
240	0xbdc4e750	-0.09614432
241	0xbda296d8	-0.079389274
242	0xbca5806d	-0.02020284
243	0x3cd9ac82	0.026571516
244	0x3e0331a8	0.12811911
245	0xbe02a588	-0.12758458
246	0x3def0029	0.116699524
247	0x3d77dfc6	0.06051614
248	0x3d306850	0.04306823
249	0x3b7a272a	0.0038170316
250	0xbe05e42e	-0.13075325
251	0x3e0ef55f	0.13960789
252	0xbc726bf0	-0.014796242
253	0x3a2b00ac	0.00065232324
254	0x3e256f97	0.1615585
255	0xbdffa0c7	-0.12481838

gru.weight_hh_l1 f4 [150, 50]
0	0x3df5eb36	0.120077536
1	0xbdbffe26	-0.09374647
2	0xbce19660	-0.027537525
3	0xbe03dd3e	-0.12877366
4	0xbdb38af8	-0.087667406
5	0x3de30e2a	0.11086686
6	0xbdc9160e	-0.0981866
7	0xbdb5def2	-0.08880414
8	0xbd43dcd6	-0.047818027
9	0x3dbc9dde	0.09209798
10	0xbd6bfa3e	-0.057611696
11	0xbd86b324	-0.06577137
12	0x3d61f4f8	0.05516526
13	0xbd6d99ee	-0.058008127
14	0xbd88a587	-0.06672197
15	0x3bbda420	0.0057873875
16	0x3dc545e6	0.09632473
17	0x3df6a16e	0.12042509
18	0x3de41416	0.111366436
19	0xbdf7835d	-0.120856024
20	0x3e07a527	0.13246594
21	0x3d5c4b28	0.053782612
22	0x3d50c784	0.050971523
23	0xbcb3ef44	-0.021964677
24	0xbdb9ff24	-0.09081867
25	0x3cde2398	0.027116582
26	0x3d075ccc	0.033047482
27	0xbd3b2c36	-0.04569646
28	0xbe077e39	-0.13231744
29	0xbcebea00	-0.028798103
30	0x3e0a38a3	0.13498168
31	0x3e09e3f7	0.13465868
32	0x3e022ded	0.12712832
33	0xbe043d9e	-0.1291413
34	0xbd7965e0	-0.06088817
35	0xbcc9838c	-0.02459886
36	0xbb8903e0	-0.00418137
37	0x3d1bb8f8	0.038018197
38	0xbe05e714	-0.1307643
39	0xbe0e0f6a	-0.13873067
40	0xbc3536e0	-0.0110604465
41	0xbd374c3a	-0.04475043
42	0xbbfe43e0	-0.007759556
43	0xbdef70d2	-0.11691441
44	0xbd7cf818	-0.06176004
45	0xbdaadf34	-0.08343354
46	0x3d328dfc	0.043592438
47	0x3e0ec433	0.13942032
48	0x3da1d66c	0.07902226
49	0x3da16b8c	0.07881841
50	0x3dc65330	0.096838355
51	0x3dec2f2e	0.11532436
52	0x3dd290be	0.10281514
53	0xbdda3f37	-0.106565885
54	0xbe0b16f0	-0.13582969
55	0xbdcb5b12	-0.0992948
56	0x3d9fa9cc	0.07796058
57	0xbd6ce7e2	-0.05783833
58	0xbd655304	-0.055987373
59	0x3decbeea	0.115598515
60	0x3e101683	0.14071088
61	0xbd4d0198	-0.050050348
62	0xbe05a8c2	-0.13052657
63	0xbdf0cf0a	-0.117582396
64	0xbdf8d2fa	-0.121496156
65	0x3d995ea2	0.07488753
66	0x3df60da6	0.12014322
67	0x3cd9eb60	0.026601493
68	0xbde5ac2c	-0.1121448
69	0xbe05afd0	-0.13055348
70	0xbdfc77ad	-0.12327514
71	0x3d13a3b0	0.036044776
72	0x3d4ee3ec	0.050510332
73	0xbd78913c	-0.06068538
74	0xbe065977	-0.13120066
75	0xbe03c5d1	-0.1286843
76	0x3e0ed309	0.13947691
77	0x3e06ef49	0.13177218
78	0xbe040e00	-0.12895966
79	0xbd9db0d3	-0.07699742
80	0x3d99fe74	0.07519236
81	0xbd563e5a	-0.052305557
82	0xbdba44a8	-0.090951264
83	0x3dd41e4c	0.10357341
84	0xbd87a388	-0.06622988
85	0xbcf3bedc	-0.029754095
86	0x3e040431	0.12892224
87	0xbe0746cf	-0.13210605
88	0x3c186610	0.009301677
89	0xbdc1dbfc	-0.09465787
90	0x3dd3794c	0.1032587
91	0x3d1454cc	0.03621368
92	0x3db880f6	0.09008972
93	0x3d014370	0.031558454
94	0xbc2fdd20	-0.010733873
95	0xbda06786	-0.078322455
96	0x3cb594c0	0.022165656
97	0xbda10efe	-0.07864188
98	0xbdd1e144	-0.10248044
99	0x3dcf4798	0.10121077
100	0x3cd8fba8	0.026487187
101	0x3d0788b8	0.03308937
102	0xbdd6fbc9	-0.10497243
103	0x3d226a18	0.03965196
104	0xbe0686aa	-0.13137308
105	0xbc9c2108	-0.01905872
106	0x3dd12168	0.1021145
107	0xbe0d94e6	-0.13826331
108	0xbd9559bc	-0.07292506
109	0x3de85afa	0.113454774
110	0xbe02d736	-0.12777409
111	0x3dbbf744	0.091780216
112	0x3d21d22c	0.039507076
113	0x3df2b4ae	0.11850868
114	0xbe0b0b95	-0.13578637
115	0xbe084f28	-0.13311446
116	0x3d53ea88	0.05173734
117	0x3e10b613	0.14131956
118	0x3d94057c	0.072276086
119	0x3cc2d900	0.023785114
120	0x3e0b1239	0.1358117
121	0x3d25c720	0.040473104
122	0x3e0488ad	0.12942763
123	0xbddea048	-0.10870415
124	0xbc28aac0	-0.010294616
125	0x3dafb892	0.08580126
126	0xbdd2fde6	-0.103023335
127	0x3d93a272	0.07208718
128	0xbcce1904	-0.025158413
129	0x3dcdc556	0.100474045
130	0xbda0a224	-0.07843426
131	0x39ea6200	0.00044704974
132	0x3cbdbea8	0.023162201
133	0xbd44511a	-0.047928907
134	0xbe066bc7	-0.13127051
135	0x3dc2ea9e	0.09517406
136	0x3e0017a9	0.12509026
137	0xbcb9618c	-0.022629522
138	0x3d011018	0.03150949
139	0x3dc94d9c	0.09829256
140	0x3de9722e	0.11398731
141	0x3c4ab010	0.012371078
142	0xbc929f58	-0.017898247
143	0x3d839378	0.06424612
144	0x3e0a2697	0.13491283
145	0x3bc23fe0	0.0059280246
146	0xbddfd1f2	-0.10928716
147	0x3e0e51c9	0.13898386
148	0xbda2d932	-0.07951583
149	0xbc55b600	-0.01304388
150	0xbd9f2865	-0.077713765
151	0xbdc40570	-0.095713496
152	0x3dd1eea6	0.10250597
153	0xbdd26ddd	-0.10274861
154	0x3d03f75c	0.032218322
155	0x3cba0100	0.022705555
156	0xbd1235cc	-0.035695836
157	0x3d9fa1fe	0.077945694
158	0xbd5ea8c8	-0.05436018
159	0x3c691160	0.014225334
160	0xbd764b9e	-0.060130708
161	0x3b03fa40	0.0020138174
162	0xbcf3d748	-0.02976574
163	0x3de557a6	0.11198358
164	0x3dc3f564	0.09568289
165	0x3de04266	0.109501645
166	0xbdbe9867	-0.09306412
167	0x3afb3b00	0.0019167364
168	0x3e00bc9d	0.1257195
169	0xbe0be56a	-0.13661733
170	0x3d6e8564	0.05823268
171	0x3d0c29c0	0.034219503
172	0x3d72274c	0.059119508
173	0x3d819cb0	0.06328714
174	0xbcb63af4	-0.022244908
175	0x3ca0ed78	0.019644484
176	0xbdd74a9a	-0.10512276
177	0x3d3f5388	0.04671052
178	0xbbeb2840	-0.007176429
179	0xbd1d981a	-0.038475133
180	0x3df76a32	0.12080802
181	0xbc9c6e80	-0.01909566
182	0x3db62fb4	0.088958174
183	0x3b9e0940	0.00482288
184	0x3db728a2	0.08943297
185	0x3d78171c	0.060568914
186	0xbe0c9b13	-0.13731031
187	0xbc5071f0	-0.012722477
188	0x3d763104	0.06010534
189	0x3d130a88	0.035898715
190	0x3d1bf72c	0.03807752
191	0xbdf8668a	-0.12128933
192	0x3e0615dd	0.13094278
193	0xbd93aabc	-0.072102994
194	0xbd1e6c52	-0.03867752
195	0xbd8fe57d	-0.07026193
196	0xbdfc75c0	-0.123271465
197	0x3d3b6b84	0.04575683
198	0xbdbe1bf8	-0.09282678
199	0xbd8bcd68	-0.068262875
200	0xbd7ea7ec	-0.06217186
201	0xbd9072ba	-0.07053132
202	0xbdf6729e	-0.1203358
203	0x3df7ebde	0.12105535
204	0x3cc16108	0.023605838
205	0xbde264c8	-0.11054379
206	0x3dea0df2	0.11428441
207	0xbdcde473	-0.10053339
208	0x3c255840	0.010091841
209	0x3d8d3eda	0.068967536
210	0xbd4f7662	-0.050650008
211	0xbd83176e	-0.06400953
212	0x3dd9f97c	0.106432885
213	0xbd971ee7	-0.07378941
214	0xbd441dca	-0.04787997
215	0x3de0dc5a	0.10979529
216	0x3da5fe08	0.08105093
217	0x3beb1f40	0.007175356
218	0x3ab01900	0.0013435185
219	0x3c9f4c50	0.019445568
220	0xbdabe166	-0.08392601
221	0x3dc1c900	0.09462166
222	0x3df79e16	0.120906994
223	0x3d937f20	0.072019815
224	0x3c31ea60	0.010859102
225	0x3dae686e	0.08516012
226	0xbb369640	-0.0027860552
227	0x3d8a88e8	0.06764394
228	0xbc5fd0f0	-0.013660654
229	0x3d02a10c	0.031891868
230	0xbdd62d02	-0.10457803
231	0xbd23d5f8	-0.03999898
232	0xbdb451d1	-0.08804668
233	0xbde8fd41	-0.11376429
234	0xbd065096	-0.032791696
235	0x3d4132ac	0.047167465
236	0x3d1bfeec	0.03808491
237	0x3cbb94e0	0.022898138
238	0xbd86a031	-0.06573523
239	0xbc79bc60	-0.015242666
240	0xbe03ccae	-0.12871048
241	0x3deedbb2	0.11662997
242	0x3dc2e7dc	0.0951688
243	0x3d373318	0.04472646
244	0xbc899ffc	-0.01679992
245	0x3a03cd00	0.0005027801
246	0xbdc0d03c	-0.094147176
247	0x3dc0b868	0.09410173
248	0xbdc7c446	-0.09754233
249	0x3df0bfd2	0.11755337
250	0xbdeead66	-0.11654167
251	0x3d2edab4	0.04268904
252	0x3dd830d4	0.10556188
253	0xbde5ef9c	-0.112273425
254	0x3cf9ad78	0.030478224
255	0xbcc64568	-0.024203017

gru.bias_ih_l1 f4 [150]
0	0x3d43a7b3	0.047767352
1	0x3d86dda4	0.06585243
2	0xbdcd545d	-0.10025857
3	0xbd8224c6	-0.0635467
4	0x3cf204c2	0.029543284
5	0xbc2d9d25	-0.010596548
6	0x3d8322d2	0.06403126
7	0x3dea6595	0.114451565
8	0xbc8caa5d	-0.01717108
9	0xbdc54c70	-0.0963372
10	0x3d2778e7	0.040886786
11	0xbdd8fe3a	-0.10595365
12	0xbdf4d831	-0.11955298
13	0xbced1430	-0.02894029
14	0xbdc5c13c	-0.09655997
15	0xbcde36c0	-0.027125716
16	0xbddaf1b4	-0.106906325
17	0xbe07fd2c	-0.13280171
18	0xbe03ab1c	-0.12858242
19	0xbd14721e	-0.036241643
20	0xbd812602	-0.063060775
21	0xbd9b42b0	-0.07581079
22	0xbcf7c867	-0.030246926
23	0xbde98d87	-0.11403947
24	0xbd3e7a7c	-0.04650353
25	0xbd6f931a	-0.058489896
26	0xbd8da94a	-0.06917055
27	0x3e0c4313	0.13697462
28	0x3df518cd	0.11967621
29	0xbd8844c5	-0.06653742
30	0xbd9468de	-0.07246564
31	0x3dbd4a02	0.092426315
32	0x3d3be9e6	0.04587736
33	0x3d8afe3b	0.06786772
34	0x3dc32e68	0.09530336
35	0xbd044313	-0.03229053
36	0xbd0a0c91	-0.03370339
37	0xbd18b8ee	-0.037285738
38	0xbd830921	-0.063982256
39	0xbbd64f98	-0.00654025
40	0x3ddfea37	0.10933345
41	0xbcc9f869	-0.024654584
42	0xbdbc062c	-0.09180865
43	0x3da134be	0.07871388
44	0xbde30476	-0.11084835
45	0x3dbc2553	0.091868065
46	0x3d6d7b11	0.057978693
47	0x3d8325f9	0.06403727
48	0xbb56b3ad	-0.0032760904
49	0xbd5c84fa	-0.053837754
50	0xbd7a96b0	-0.061178863
51	0xbda81892	-0.082078114
52	0x3d967f25	0.0734847
53	0xbd8d3082	-0.06894018
54	0xbd88a9f2	-0.066730395
55	0x3d017351	0.031604115
56	0xbd8bb129	-0.068209
57	0xbe04c47b	-0.12965576
58	0xbdec9cac	-0.1155332
59	0x3a307666	0.000673151
60	0x3d9c9daa	0.076472595
61	0x3dbb30e4	0.091401845
62	0x3bfeb021	0.007772461
63	0x3de35f66	0.1110218
64	0xbd85f887	-0.065415435
65	0xbd979ca2	-0.07402922
66	0xbd798616	-0.06091889
67	0x3db9156d	0.0903729
68	0x3d40ef3a	0.047103144
69	0x3d8addb5	0.067805685
70	0xbdc5b292	-0.096532
71	0x3de5c818	0.112198055
72	0xbde51681	-0.11185933
73	0xbccdda97	-0.025128646
74	0x3db70379	0.08936209
75	0xbd08634a	-0.033297814
76	0xbd57191c	-0.05251418
77	0x3db9a128	0.09063941
78	0x3d96e247	0.07367378
79	0xbcfd56b6	-0.030925136
80	0xbdfb1000	-0.12258911
81	0x3d4a5ee3	0.049406897
82	0xbdf37b49	-0.11888749
83	0x3d982f26	0.07430868
84	0x3e260c45	0.16215618
85	0x3de1fed0	0.1103493
86	0xbda33046	-0.07968192
87	0xbbefd502	-0.0073190937
88	0x3c9b1a56	0.018933456
89	0x3d8fa922	0.070146814
90	0xbc9d7515	-0.019220868
91	0x3d498ec4	0.049208418
92	0xbd3a255a	-0.045445777
93	0x3e1b98a5	0.15194948
94	0xbdc7303b	-0.09725996
95	0x3caf4cee	0.021398988
96	0x3c8f52ea	0.017495591
97	0xbddba03f	-0.10723924
98	0x3ce00431	0.027345749
99	0xbdfc1573	-0.123087786
100	0xbd85304f	-0.06503355
101	0xbd709fad	-0.05874603
102	0xbd9a5bc0	-0.07537031
103	0x3dd2b5a3	0.10288551
104	0x3df7b954	0.120958954
105	0xbdfbc7c9	-0.12293965
106	0xbd086311	-0.033297602
107	0x3d8efd95	0.06981961
108	0x3cf49933	0.029858207
109	0x3d5130a7	0.05107179
110	0x3d26ac05	0.040691394
111	0x3d926046	0.07147269
112	0x3e21dd1d	0.15807004
113	0xbe17b258	-0.14814126
114	0xbdf63d86	-0.120234534
115	0xbdbe368e	-0.09287749
116	0x3e06677b	0.13125412
117	0x3e008ba7	0.12553273
118	0xbdc1b76f	-0.09458815
119	0xbe17bea5	-0.14818819
120	0x3d9ad92b	0.07560953
121	0x3d6cb7c6	0.057792448
122	0xbd77e363	-0.060519587
123	0xbd93af61	-0.07211185
124	0x3dee7a1c	0.11644384
125	0x3c8a2cd6	0.016867083
126	0x3dd95f65	0.10613898
127	0xbd8031c4	-0.06259492
128	0x3deba3fa	0.115058854
129	0xbd85b499	-0.06528587
130	0x3e069b64	0.13145214
131	0x3e0a4e20	0.13506365
132	0xbd979dd8	-0.07403153
133	0xbde596e8	-0.11210424
134	0x3de5c2f5	0.11218826
135	0xbd488671	-0.04895634
136	0x3df46a8e	0.11934386
137	0x3d759d3f	0.059964415
138	0x3d1790d9	0.037003372
139	0x3de28099	0.11059684
140	0xbd167d09	-0.036740337
141	0x3e1830fc	0.14862436
142	0xbdbc2f0f	-0.09188663
143	0xbc72b341	-0.014813245
144	0xbd8c303c	-0.068451375
145	0xbd84ea57	-0.06490009
146	0xbc6157f7	-0.013753883
147	0xbdd0dad8	-0.10197991
148	0xbd64486d	-0.055733133
149	0x3d212a03	0.039346706

gru.bias_hh_l1 f4 [150]
0	0x3d211bcf	0.03933316
1	0xbcb9b277	-0.022668106
2	0x3dda32df	0.10654234
3	0x3e1506e5	0.14553411
4	0x3d8c9fc0	0.068664074
5	0xbdbd7a1c	-0.09251806
6	0x3df5a584	0.1199446
7	0x3d02f706	0.03197386
8	0xbd4b3a8c	-0.04961638
9	0x3d8ff00b	0.070282064
10	0xbdadde6b	-0.084896885
11	0x3db4f096	0.088349506
12	0x3db91e1d	0.09038947
13	0x3d1d7bb1	0.03844804
14	0xba2c90a7	-0.0006582834
15	0xbdcf48d7	-0.10121315
16	0xba77df23	-0.0009455552
17	0x3d5dfe53	0.05419762
18	0xbe174629	-0.14772858
19	0x3d676732	0.0564949
20	0xbdc08cb4	-0.09401837
21	0x3cfa9756	0.03058974
22	0xbdc5ec81	-0.0966425
23	0xbd736638	-0.059423655
24	0x3d9b215f	0.075747244
25	0xbd6001ac	-0.054689094
26	0xbe122021	-0.14270069
27	0x3e03f45f	0.12886189
28	0x3df3e655	0.11909167
29	0x3c9fec57	0.019521875
30	0xbcdf5a0d	-0.02726462
31	0xbd7ab87f	-0.061211105
32	0x3c931002	0.017951969
33	0xbc34e0b9	-0.011039906
34	0xbe1fa1a8	-0.1558901
35	0x3db53e66	0.08849792
36	0x3dfc3aee	0.123159274
37	0xbe053577	-0.13008676
38	0x3e1acd67	0.15117417
39	0xbd002123	-0.0312816
40	0x3d580d1c	0.052746877
41	0x3d938732	0.07203521
42	0x3986defc	0.00025724608
43	0xbde2e286	-0.11078362
44	0xbdeab8d1	-0.11461032
45	0x3da67a2b	0.081287704
46	0x3bfe818d	0.0077669085
47	0xbc2bfe76	-0.01049768
48	0xbd71f27b	-0.059069138
49	0x3d211638	0.03932783
50	0xbd0141e4	-0.03155698
51	0xbdc0b4ac	-0.094094604
52	0xbe1337de	-0.1437678
53	0x3dc5bab4	0.096547514
54	0xbdc167e7	-0.09443646
55	0xbdbb9cc4	-0.0916076
56	0xbd80880c	-0.06275949
57	0x3cb2f7fd	0.021846766
58	0xbdeefd5c	-0.11669418
59	0x3c672b28	0.01410941
60	0x3db0c4c5	0.08631281
61	0x3dfaae90	0.122403264
62	0xbda79518	-0.08182734
63	0xbe14f705	-0.14547355
64	0xbdad901d	-0.08474753
65	0x3dc2c544	0.09510282
66	0xbd0ea171	-0.03482193
67	0xbde6bfe3	-0.11267068
68	0xbdbc233f	-0.0918641
69	0x3d312f57	0.043258037
70	0xbddd6169	-0.10809595
71	0x3d07159e	0.0329796
72	0x3d302e75	0.043013055
73	0xbdb2d2c0	-0.087316036
74	0xbddf657e	-0.1090803
75	0x3d5eb426	0.05437102
76	0x3ce26dc3	0.02764023
77	0xbc996f1f	-0.018729744
78	0xbe018146	-0.1264697
79	0xbd81276c	-0.06306347
80	0xbe016747	-0.12637053
81	0xbb40e1f8	-0.0029431563
82	0x3db9751b	0.09055539
83	0x3dd1653c	0.10224387
84	0xbdb3ea10	-0.08784878
85	0xbdbc67c4	-0.09199479
86	0xbdaa4f8e	-0.08315955
87	0x3a2fbf29	0.00067042053
88	0x3db9b6c9	0.090680666
89	0xbda735ea	-0.0816458
90	0x3c8db2da	0.017297197
91	0xbdb5431d	-0.088506915
92	0xbdae4748	-0.085096896
93	0xbdea92ab	-0.11453756
94	0xbe172ae1	-0.14762451
95	0x3d481820	0.048851132
96	0x39ce274c	0.0003932066
97	0x3dd462d4	0.103704125
98	0xbd7736f8	-0.060355157
99	0xbd696cc5	-0.056988496
100	0xbe087285	-0.13324936
101	0xbd1a9712	-0.037741728
102	0xbdf17f5e	-0.117918715
103	0xbdc54650	-0.09632552
104	0xbd840f7b	-0.06448265
105	0xbd77affb	-0.060470562
106	0xbd22f57f	-0.039784905
107	0x3d752386	0.05984833
108	0x3e17f7ca	0.14840618
109	0x3dbafb7e	0.091299996
110	0x3deef3db	0.116676055
111	0xbdb20c64	-0.086937696
112	0xba3365b1	-0.00068434613
113	0x3d994e46	0.074856326
114	0xbdff551e	-0.12467407
115	0xbe0637c9	-0.13107218
116	0x3dfc75ec	0.12327179
117	0xbd8f33bb	-0.06992289
118	0xbb16dc16	-0.0023019365
119	0xbd9ceec3	-0.07662728
120	0x3d2721ce	0.040803723
121	0x3d95122a	0.07278855
122	0xbe19ac53	-0.15007143
123	0xbd90a195	-0.07062069
124	0x3da09fe5	0.078429975
125	0xbdd4bc51	-0.10387481
126	0x3c9a0598	0.018801495
127	0xbd7fa504	-0.06241323
128	0x3dc2144d	0.09476528
129	0xbe231828	-0.15927184
130	0x3d496e35	0.049177367
131	0x3d81f961	0.063463934
132	0xbd82bd09	-0.06383712
133	0xbcc3b42f	-0.02388963
134	0x3d6d3ba3	0.057918202
135	0x3e154c71	0.14579941
136	0x3dad05fd	0.08448408
137	0xbb93db14	-0.0045122
138	0xbe227b69	-0.1586739
139	0xbd7f0499	-0.062260244
140	0x3d42ef9c	0.04759179
141	0x3c3a9b1d	0.011389521
142	0xbc2bb652	-0.01048048
143	0xbd0e2657	-0.034704532
144	0xbd1ee376	-0.038791142
145	0xbcbb947a	-0.022897948
146	0xbd969ce4	-0.07354143
147	0xbdda3cc3	-0.10656121
148	0x3cdfeccd	0.027334595
149	0x3c8664b9	0.01640545

fc.weight f4 [1, 50]
0	0xbdb1a2b7	-0.086736135
1	0xbc27e034	-0.010246325
2	0xbd8774b6	-0.06614058
3	0xbcb660aa	-0.02226289
4	0x3cafb0f0	0.021446675
5	0xbd1190e3	-0.035538565
6	0xbded4f90	-0.11587441
7	0x3dee5752	0.11637749
8	0x3d13257b	0.035924416
9	0x3da9f342	0.08298351
10	0xbdc340d3	-0.095338486
11	0xbde010df	-0.10940718
12	0x3dec697f	0.11543559
13	0xbe1d92c1	-0.15388013
14	0xbe0d785e	-0.13815448
15	0xbda8d11a	-0.08243008
16	0x3dc58102	0.09643747
17	0x3d47e1b1	0.04879922
18	0x3d6938b5	0.056938846
19	0xbdb3ad5f	-0.08773302
20	0x3c72267f	0.014779686
21	0x3d042f89	0.032271896
22	0xbd203fa0	-0.039123178
23	0xbd7d636f	-0.061862405
24	0xbc92d43e	-0.01792347
25	0x3ddf6518	0.10907954
26	0x3e178fba	0.14800921
27	0xbdda3526	-0.106546685
28	0x3d691fa3	0.056914937
29	0xbd21517a	-0.039384343
30	0x3d819e59	0.063290305
31	0x3dd38fe3	0.103301786
32	0xbd6c130c	-0.057635352
33	0x3ded37d7	0.11582916
34	0xbd116cdc	-0.035504207
35	0x3dcf2c02	0.10115816
36	0x3ce34157	0.027741117
37	0x3e0e3a60	0.13889456
38	0xbdbbfb63	-0.091788076
39	0xbd85f7fd	-0.06541441
40	0x3d0d9608	0.03456691
41	0x3cdaea71	0.026723118
42	0x3dcb0c55	0.099144615
43	0x3da0ccd8	0.07851571
44	0xbdca9a39	-0.09892697
45	0x3d222c2d	0.03959291
46	0xbde38d1f	-0.11110901
47	0xbd46fcc2	-0.048580892
48	0xbd95a3bb	-0.0730662
49	0x3d86a4dc	0.06574413
